…
        "model_trained, history = train_model(model_trained, trainX, trainY, num_epochs, batch_size)"
      ],
      "execution_count": 37,
      "outputs": [
        {
          "output_type": "stream",
          "text": [
            "Model: \"model_4\"\n",
            "__________________________________________________________________________________________________\n",
            "Layer (type)                    Output Shape         Param #     Connected to                     \n",
            "==================================================================================================\n",
            "input_5 (InputLayer)            [(None, 224, 224, 3) 0                                            \n",
            "__________________________________________________________________________________________________\n",
            "conv1_pad (ZeroPadding2D)       (None, 230, 230, 3)  0           input_5[0][0]                    \n",
            "__________________________________________________________________________________________________\n",
            "conv1_conv (Conv2D)             (None, 112, 112, 64) 9472        conv1_pad[0][0]                  \n",
            "__________________________________________________________________________________________________\n",
            "conv1_bn (BatchNormalization)   (None, 112, 112, 64) 256         conv1_conv[0][0]                 \n",
            "__________________________________________________________________________________________________\n",
            "conv1_relu (Activation)         (None, 112, 112, 64) 0           conv1_bn[0][0]                   \n",
            "__________________________________________________________________________________________________\n",
            "pool1_pad (ZeroPadding2D)       (None, 114, 114, 64) 0           conv1_relu[0][0]                 \n",
            "__________________________________________________________________________________________________\n",
            "pool1_pool (MaxPooling2D)       (None, 56, 56, 64)   0           pool1_pad[0][0]                  \n",
            "__________________________________________________________________________________________________\n",
            "conv2_block1_1_conv (Conv2D)    (None, 56, 56, 64)   4160        pool1_pool[0][0]                 \n",
            "__________________________________________________________________________________________________\n",
            "conv2_block1_1_bn (BatchNormali (None, 56, 56, 64)   256         conv2_block1_1_conv[0][0]        \n",
            "__________________________________________________________________________________________________\n",
            "conv2_block1_1_relu (Activation (None, 56, 56, 64)   0           conv2_block1_1_bn[0][0]          \n",
            "__________________________________________________________________________________________________\n",
            "conv2_block1_2_conv (Conv2D)    (None, 56, 56, 64)   36928       conv2_block1_1_relu[0][0]        \n",
            "__________________________________________________________________________________________________\n",
            "conv2_block1_2_bn (BatchNormali (None, 56, 56, 64)   256         conv2_block1_2_conv[0][0]        \n",
            "__________________________________________________________________________________________________\n",
            "conv2_block1_2_relu (Activation (None, 56, 56, 64)   0           conv2_block1_2_bn[0][0]          \n",
            "__________________________________________________________________________________________________\n",
            "conv2_block1_0_conv (Conv2D)    (None, 56, 56, 256)  16640       pool1_pool[0][0]                 \n",
            "__________________________________________________________________________________________________\n",
            "conv2_block1_3_conv (Conv2D)    (None, 56, 56, 256)  16640       conv2_block1_2_relu[0][0]        \n",
            "__________________________________________________________________________________________________\n",
            "conv2_block1_0_bn (BatchNormali (None, 56, 56, 256)  1024        conv2_block1_0_conv[0][0]        \n",
            "__________________________________________________________________________________________________\n",
            "conv2_block1_3_bn (BatchNormali (None, 56, 56, 256)  1024        conv2_block1_3_conv[0][0]        \n",
            "__________________________________________________________________________________________________\n",
            "conv2_block1_add (Add)          (None, 56, 56, 256)  0           conv2_block1_0_bn[0][0]          \n",
            "                                                                 conv2_block1_3_bn[0][0]          \n",
            "__________________________________________________________________________________________________\n",
            "conv2_block1_out (Activation)   (None, 56, 56, 256)  0           conv2_block1_add[0][0]           \n",
            "__________________________________________________________________________________________________\n",
            "conv2_block2_1_conv (Conv2D)    (None, 56, 56, 64)   16448       conv2_block1_out[0][0]           \n",
            "__________________________________________________________________________________________________\n",
            "conv2_block2_1_bn (BatchNormali (None, 56, 56, 64)   256         conv2_block2_1_conv[0][0]        \n",
            "__________________________________________________________________________________________________\n",
            "conv2_block2_1_relu (Activation (None, 56, 56, 64)   0           conv2_block2_1_bn[0][0]          \n",
            "__________________________________________________________________________________________________\n",
            "conv2_block2_2_conv (Conv2D)    (None, 56, 56, 64)   36928       conv2_block2_1_relu[0][0]        \n",
            "__________________________________________________________________________________________________\n",
            "conv2_block2_2_bn (BatchNormali (None, 56, 56, 64)   256         conv2_block2_2_conv[0][0]        \n",
            "__________________________________________________________________________________________________\n",
            "conv2_block2_2_relu (Activation (None, 56, 56, 64)   0           conv2_block2_2_bn[0][0]          \n",
            "__________________________________________________________________________________________________\n",
            "conv2_block2_3_conv (Conv2D)    (None, 56, 56, 256)  16640       conv2_block2_2_relu[0][0]        \n",
            "__________________________________________________________________________________________________\n",
            "conv2_block2_3_bn (BatchNormali (None, 56, 56, 256)  1024        conv2_block2_3_conv[0][0]        \n",
            "__________________________________________________________________________________________________\n",
            "conv2_block2_add (Add)          (None, 56, 56, 256)  0           conv2_block1_out[0][0]           \n",
            "                                                                 conv2_block2_3_bn[0][0]          \n",
            "__________________________________________________________________________________________________\n",
            "conv2_block2_out (Activation)   (None, 56, 56, 256)  0           conv2_block2_add[0][0]           \n",
            "__________________________________________________________________________________________________\n",
            "conv2_block3_1_conv (Conv2D)    (None, 56, 56, 64)   16448       conv2_block2_out[0][0]           \n",
            "__________________________________________________________________________________________________\n",
            "conv2_block3_1_bn (BatchNormali (None, 56, 56, 64)   256         conv2_block3_1_conv[0][0]        \n",
            "__________________________________________________________________________________________________\n",
            "conv2_block3_1_relu (Activation (None, 56, 56, 64)   0           conv2_block3_1_bn[0][0]          \n",
            "__________________________________________________________________________________________________\n",
            "conv2_block3_2_conv (Conv2D)    (None, 56, 56, 64)   36928       conv2_block3_1_relu[0][0]        \n",
            "__________________________________________________________________________________________________\n",
            "conv2_block3_2_bn (BatchNormali (None, 56, 56, 64)   256         conv2_block3_2_conv[0][0]        \n",
            "__________________________________________________________________________________________________\n",
            "conv2_block3_2_relu (Activation (None, 56, 56, 64)   0           conv2_block3_2_bn[0][0]          \n",
            "__________________________________________________________________________________________________\n",
            "conv2_block3_3_conv (Conv2D)    (None, 56, 56, 256)  16640       conv2_block3_2_relu[0][0]        \n",
            "__________________________________________________________________________________________________\n",
            "conv2_block3_3_bn (BatchNormali (None, 56, 56, 256)  1024        conv2_block3_3_conv[0][0]        \n",
            "__________________________________________________________________________________________________\n",
            "conv2_block3_add (Add)          (None, 56, 56, 256)  0           conv2_block2_out[0][0]           \n",
            "                                                                 conv2_block3_3_bn[0][0]          \n",
            "__________________________________________________________________________________________________\n",
            "conv2_block3_out (Activation)   (None, 56, 56, 256)  0           conv2_block3_add[0][0]           \n",
            "__________________________________________________________________________________________________\n",
            "conv3_block1_1_conv (Conv2D)    (None, 28, 28, 128)  32896       conv2_block3_out[0][0]           \n",
            "__________________________________________________________________________________________________\n",
            "conv3_block1_1_bn (BatchNormali (None, 28, 28, 128)  512         conv3_block1_1_conv[0][0]        \n",
            "__________________________________________________________________________________________________\n",
            "conv3_block1_1_relu (Activation (None, 28, 28, 128)  0           conv3_block1_1_bn[0][0]          \n",
            "__________________________________________________________________________________________________\n",
            "conv3_block1_2_conv (Conv2D)    (None, 28, 28, 128)  147584      conv3_block1_1_relu[0][0]        \n",
            "__________________________________________________________________________________________________\n",
            "conv3_block1_2_bn (BatchNormali (None, 28, 28, 128)  512         conv3_block1_2_conv[0][0]        \n",
            "__________________________________________________________________________________________________\n",
            "conv3_block1_2_relu (Activation (None, 28, 28, 128)  0           conv3_block1_2_bn[0][0]          \n",
            "__________________________________________________________________________________________________\n",
            "conv3_block1_0_conv (Conv2D)    (None, 28, 28, 512)  131584      conv2_block3_out[0][0]           \n",
            "__________________________________________________________________________________________________\n",
            "conv3_block1_3_conv (Conv2D)    (None, 28, 28, 512)  66048       conv3_block1_2_relu[0][0]        \n",
            "__________________________________________________________________________________________________\n",
            "conv3_block1_0_bn (BatchNormali (None, 28, 28, 512)  2048        conv3_block1_0_conv[0][0]        \n",
            "__________________________________________________________________________________________________\n",
            "conv3_block1_3_bn (BatchNormali (None, 28, 28, 512)  2048        conv3_block1_3_conv[0][0]        \n",
            "__________________________________________________________________________________________________\n",
            "conv3_block1_add (Add)          (None, 28, 28, 512)  0           conv3_block1_0_bn[0][0]          \n",
            "                                                                 conv3_block1_3_bn[0][0]          \n",
            "__________________________________________________________________________________________________\n",
            "conv3_block1_out (Activation)   (None, 28, 28, 512)  0           conv3_block1_add[0][0]           \n",
            "__________________________________________________________________________________________________\n",
            "conv3_block2_1_conv (Conv2D)    (None, 28, 28, 128)  65664       conv3_block1_out[0][0]           \n",
            "__________________________________________________________________________________________________\n",
            "conv3_block2_1_bn (BatchNormali (None, 28, 28, 128)  512         conv3_block2_1_conv[0][0]        \n",
            "__________________________________________________________________________________________________\n",
            "conv3_block2_1_relu (Activation (None, 28, 28, 128)  0           conv3_block2_1_bn[0][0]          \n",
            "__________________________________________________________________________________________________\n",
            "conv3_block2_2_conv (Conv2D)    (None, 28, 28, 128)  147584      conv3_block2_1_relu[0][0]        \n",
            "__________________________________________________________________________________________________\n",
            "conv3_block2_2_bn (BatchNormali (None, 28, 28, 128)  512         conv3_block2_2_conv[0][0]        \n",
            "__________________________________________________________________________________________________\n",
            "conv3_block2_2_relu (Activation (None, 28, 28, 128)  0           conv3_block2_2_bn[0][0]          \n",
            "__________________________________________________________________________________________________\n",
            "conv3_block2_3_conv (Conv2D)    (None, 28, 28, 512)  66048       conv3_block2_2_relu[0][0]        \n",
            "__________________________________________________________________________________________________\n",
            "conv3_block2_3_bn (BatchNormali (None, 28, 28, 512)  2048        conv3_block2_3_conv[0][0]        \n",
            "__________________________________________________________________________________________________\n",
            "conv3_block2_add (Add)          (None, 28, 28, 512)  0           conv3_block1_out[0][0]           \n",
            "                                                                 conv3_block2_3_bn[0][0]          \n",
            "__________________________________________________________________________________________________\n",
            "conv3_block2_out (Activation)   (None, 28, 28, 512)  0           conv3_block2_add[0][0]           \n",
            "__________________________________________________________________________________________________\n",
            "conv3_block3_1_conv (Conv2D)    (None, 28, 28, 128)  65664       conv3_block2_out[0][0]           \n",
            "__________________________________________________________________________________________________\n",
            "conv3_block3_1_bn (BatchNormali (None, 28, 28, 128)  512         conv3_block3_1_conv[0][0]        \n",
            "__________________________________________________________________________________________________\n",
            "conv3_block3_1_relu (Activation (None, 28, 28, 128)  0           conv3_block3_1_bn[0][0]          \n",
            "__________________________________________________________________________________________________\n",
            "conv3_block3_2_conv (Conv2D)    (None, 28, 28, 128)  147584      conv3_block3_1_relu[0][0]        \n",
            "__________________________________________________________________________________________________\n",
            "conv3_block3_2_bn (BatchNormali (None, 28, 28, 128)  512         conv3_block3_2_conv[0][0]        \n",
            "__________________________________________________________________________________________________\n",
            "conv3_block3_2_relu (Activation (None, 28, 28, 128)  0           conv3_block3_2_bn[0][0]          \n",
            "__________________________________________________________________________________________________\n",
            "conv3_block3_3_conv (Conv2D)    (None, 28, 28, 512)  66048       conv3_block3_2_relu[0][0]        \n",
            "__________________________________________________________________________________________________\n",
            "conv3_block3_3_bn (BatchNormali (None, 28, 28, 512)  2048        conv3_block3_3_conv[0][0]        \n",
            "__________________________________________________________________________________________________\n",
            "conv3_block3_add (Add)          (None, 28, 28, 512)  0           conv3_block2_out[0][0]           \n",
            "                                                                 conv3_block3_3_bn[0][0]          \n",
            "__________________________________________________________________________________________________\n",
            "conv3_block3_out (Activation)   (None, 28, 28, 512)  0           conv3_block3_add[0][0]           \n",
            "__________________________________________________________________________________________________\n",
            "conv3_block4_1_conv (Conv2D)    (None, 28, 28, 128)  65664       conv3_block3_out[0][0]           \n",
            "__________________________________________________________________________________________________\n",
            "conv3_block4_1_bn (BatchNormali (None, 28, 28, 128)  512         conv3_block4_1_conv[0][0]        \n",
            "__________________________________________________________________________________________________\n",
            "conv3_block4_1_relu (Activation (None, 28, 28, 128)  0           conv3_block4_1_bn[0][0]          \n",
            "__________________________________________________________________________________________________\n",
            "conv3_block4_2_conv (Conv2D)    (None, 28, 28, 128)  147584      conv3_block4_1_relu[0][0]        \n",
            "__________________________________________________________________________________________________\n",
            "conv3_block4_2_bn (BatchNormali (None, 28, 28, 128)  512         conv3_block4_2_conv[0][0]        \n",
            "__________________________________________________________________________________________________\n",
            "conv3_block4_2_relu (Activation (None, 28, 28, 128)  0           conv3_block4_2_bn[0][0]          \n",
            "__________________________________________________________________________________________________\n",
            "conv3_block4_3_conv (Conv2D)    (None, 28, 28, 512)  66048       conv3_block4_2_relu[0][0]        \n",
            "__________________________________________________________________________________________________\n",
            "conv3_block4_3_bn (BatchNormali (None, 28, 28, 512)  2048        conv3_block4_3_conv[0][0]        \n",
            "__________________________________________________________________________________________________\n",
            "conv3_block4_add (Add)          (None, 28, 28, 512)  0           conv3_block3_out[0][0]           \n",
            "                                                                 conv3_block4_3_bn[0][0]          \n",
            "__________________________________________________________________________________________________\n",
            "conv3_block4_out (Activation)   (None, 28, 28, 512)  0           conv3_block4_add[0][0]           \n",
            "__________________________________________________________________________________________________\n",
            "conv4_block1_1_conv (Conv2D)    (None, 14, 14, 256)  131328      conv3_block4_out[0][0]           \n",
            "__________________________________________________________________________________________________\n",
            "conv4_block1_1_bn (BatchNormali (None, 14, 14, 256)  1024        conv4_block1_1_conv[0][0]        \n",
            "__________________________________________________________________________________________________\n",
            "conv4_block1_1_relu (Activation (None, 14, 14, 256)  0           conv4_block1_1_bn[0][0]          \n",
            "__________________________________________________________________________________________________\n",
            "conv4_block1_2_conv (Conv2D)    (None, 14, 14, 256)  590080      conv4_block1_1_relu[0][0]        \n",
            "__________________________________________________________________________________________________\n",
            "conv4_block1_2_bn (BatchNormali (None, 14, 14, 256)  1024        conv4_block1_2_conv[0][0]        \n",
            "__________________________________________________________________________________________________\n",
            "conv4_block1_2_relu (Activation (None, 14, 14, 256)  0           conv4_block1_2_bn[0][0]          \n",
            "__________________________________________________________________________________________________\n",
            "conv4_block1_0_conv (Conv2D)    (None, 14, 14, 1024) 525312      conv3_block4_out[0][0]           \n",
            "__________________________________________________________________________________________________\n",
            "conv4_block1_3_conv (Conv2D)    (None, 14, 14, 1024) 263168      conv4_block1_2_relu[0][0]        \n",
            "__________________________________________________________________________________________________\n",
            "conv4_block1_0_bn (BatchNormali (None, 14, 14, 1024) 4096        conv4_block1_0_conv[0][0]        \n",
            "__________________________________________________________________________________________________\n",
            "conv4_block1_3_bn (BatchNormali (None, 14, 14, 1024) 4096        conv4_block1_3_conv[0][0]        \n",
            "__________________________________________________________________________________________________\n",
            "conv4_block1_add (Add)          (None, 14, 14, 1024) 0           conv4_block1_0_bn[0][0]          \n",
            "                                                                 conv4_block1_3_bn[0][0]          \n",
            "__________________________________________________________________________________________________\n",
            "conv4_block1_out (Activation)   (None, 14, 14, 1024) 0           conv4_block1_add[0][0]           \n",
            "__________________________________________________________________________________________________\n",
            "conv4_block2_1_conv (Conv2D)    (None, 14, 14, 256)  262400      conv4_block1_out[0][0]           \n",
            "__________________________________________________________________________________________________\n",
            "conv4_block2_1_bn (BatchNormali (None, 14, 14, 256)  1024        conv4_block2_1_conv[0][0]        \n",
            "__________________________________________________________________________________________________\n",
            "conv4_block2_1_relu (Activation (None, 14, 14, 256)  0           conv4_block2_1_bn[0][0]          \n",
            "__________________________________________________________________________________________________\n",
            "conv4_block2_2_conv (Conv2D)    (None, 14, 14, 256)  590080      conv4_block2_1_relu[0][0]        \n",
            "__________________________________________________________________________________________________\n",
            "conv4_block2_2_bn (BatchNormali (None, 14, 14, 256)  1024        conv4_block2_2_conv[0][0]        \n",
            "__________________________________________________________________________________________________\n",
            "conv4_block2_2_relu (Activation (None, 14, 14, 256)  0           conv4_block2_2_bn[0][0]          \n",
            "__________________________________________________________________________________________________\n",
            "conv4_block2_3_conv (Conv2D)    (None, 14, 14, 1024) 263168      conv4_block2_2_relu[0][0]        \n",
            "__________________________________________________________________________________________________\n",
            "conv4_block2_3_bn (BatchNormali (None, 14, 14, 1024) 4096        conv4_block2_3_conv[0][0]        \n",
            "__________________________________________________________________________________________________\n",
            "conv4_block2_add (Add)          (None, 14, 14, 1024) 0           conv4_block1_out[0][0]           \n",
            "                                                                 conv4_block2_3_bn[0][0]          \n",
            "__________________________________________________________________________________________________\n",
            "conv4_block2_out (Activation)   (None, 14, 14, 1024) 0           conv4_block2_add[0][0]           \n",
            "__________________________________________________________________________________________________\n",
            "conv4_block3_1_conv (Conv2D)    (None, 14, 14, 256)  262400      conv4_block2_out[0][0]           \n",
            "__________________________________________________________________________________________________\n",
            "conv4_block3_1_bn (BatchNormali (None, 14, 14, 256)  1024        conv4_block3_1_conv[0][0]        \n",
            "__________________________________________________________________________________________________\n",
            "conv4_block3_1_relu (Activation (None, 14, 14, 256)  0           conv4_block3_1_bn[0][0]          \n",
            "__________________________________________________________________________________________________\n",
            "conv4_block3_2_conv (Conv2D)    (None, 14, 14, 256)  590080      conv4_block3_1_relu[0][0]        \n",
            "__________________________________________________________________________________________________\n",
            "conv4_block3_2_bn (BatchNormali (None, 14, 14, 256)  1024        conv4_block3_2_conv[0][0]        \n",
            "__________________________________________________________________________________________________\n",
            "conv4_block3_2_relu (Activation (None, 14, 14, 256)  0           conv4_block3_2_bn[0][0]          \n",
            "__________________________________________________________________________________________________\n",
            "conv4_block3_3_conv (Conv2D)    (None, 14, 14, 1024) 263168      conv4_block3_2_relu[0][0]        \n",
            "__________________________________________________________________________________________________\n",
            "conv4_block3_3_bn (BatchNormali (None, 14, 14, 1024) 4096        conv4_block3_3_conv[0][0]        \n",
            "__________________________________________________________________________________________________\n",
            "conv4_block3_add (Add)          (None, 14, 14, 1024) 0           conv4_block2_out[0][0]           \n",
            "                                                                 conv4_block3_3_bn[0][0]          \n",
            "__________________________________________________________________________________________________\n",
            "conv4_block3_out (Activation)   (None, 14, 14, 1024) 0           conv4_block3_add[0][0]           \n",
            "__________________________________________________________________________________________________\n",
            "conv4_block4_1_conv (Conv2D)    (None, 14, 14, 256)  262400      conv4_block3_out[0][0]           \n",
            "__________________________________________________________________________________________________\n",
            "conv4_block4_1_bn (BatchNormali (None, 14, 14, 256)  1024        conv4_block4_1_conv[0][0]        \n",
            "__________________________________________________________________________________________________\n",
            "conv4_block4_1_relu (Activation (None, 14, 14, 256)  0           conv4_block4_1_bn[0][0]          \n",
            "__________________________________________________________________________________________________\n",
            "conv4_block4_2_conv (Conv2D)    (None, 14, 14, 256)  590080      conv4_block4_1_relu[0][0]        \n",
            "__________________________________________________________________________________________________\n",
            "conv4_block4_2_bn (BatchNormali (None, 14, 14, 256)  1024        conv4_block4_2_conv[0][0]        \n",
            "__________________________________________________________________________________________________\n",
            "conv4_block4_2_relu (Activation (None, 14, 14, 256)  0           conv4_block4_2_bn[0][0]          \n",
            "__________________________________________________________________________________________________\n",
            "conv4_block4_3_conv (Conv2D)    (None, 14, 14, 1024) 263168      conv4_block4_2_relu[0][0]        \n",
            "__________________________________________________________________________________________________\n",
            "conv4_block4_3_bn (BatchNormali (None, 14, 14, 1024) 4096        conv4_block4_3_conv[0][0]        \n",
            "__________________________________________________________________________________________________\n",
            "conv4_block4_add (Add)          (None, 14, 14, 1024) 0           conv4_block3_out[0][0]           \n",
            "                                                                 conv4_block4_3_bn[0][0]          \n",
            "__________________________________________________________________________________________________\n",
            "conv4_block4_out (Activation)   (None, 14, 14, 1024) 0           conv4_block4_add[0][0]           \n",
            "__________________________________________________________________________________________________\n",
            "conv4_block5_1_conv (Conv2D)    (None, 14, 14, 256)  262400      conv4_block4_out[0][0]           \n",
            "__________________________________________________________________________________________________\n",
            "conv4_block5_1_bn (BatchNormali (None, 14, 14, 256)  1024        conv4_block5_1_conv[0][0]        \n",
            "__________________________________________________________________________________________________\n",
            "conv4_block5_1_relu (Activation (None, 14, 14, 256)  0           conv4_block5_1_bn[0][0]          \n",
            "__________________________________________________________________________________________________\n",
            "conv4_block5_2_conv (Conv2D)    (None, 14, 14, 256)  590080      conv4_block5_1_relu[0][0]        \n",
            "__________________________________________________________________________________________________\n",
            "conv4_block5_2_bn (BatchNormali (None, 14, 14, 256)  1024        conv4_block5_2_conv[0][0]        \n",
            "__________________________________________________________________________________________________\n",
            "conv4_block5_2_relu (Activation (None, 14, 14, 256)  0           conv4_block5_2_bn[0][0]          \n",
            "__________________________________________________________________________________________________\n",
            "conv4_block5_3_conv (Conv2D)    (None, 14, 14, 1024) 263168      conv4_block5_2_relu[0][0]        \n",
            "__________________________________________________________________________________________________\n",
            "conv4_block5_3_bn (BatchNormali (None, 14, 14, 1024) 4096        conv4_block5_3_conv[0][0]        \n",
            "__________________________________________________________________________________________________\n",
            "conv4_block5_add (Add)          (None, 14, 14, 1024) 0           conv4_block4_out[0][0]           \n",
            "                                                                 conv4_block5_3_bn[0][0]          \n",
            "__________________________________________________________________________________________________\n",
            "conv4_block5_out (Activation)   (None, 14, 14, 1024) 0           conv4_block5_add[0][0]           \n",
            "__________________________________________________________________________________________________\n",
            "conv4_block6_1_conv (Conv2D)    (None, 14, 14, 256)  262400      conv4_block5_out[0][0]           \n",
            "__________________________________________________________________________________________________\n",
            "conv4_block6_1_bn (BatchNormali (None, 14, 14, 256)  1024        conv4_block6_1_conv[0][0]        \n",
            "__________________________________________________________________________________________________\n",
            "conv4_block6_1_relu (Activation (None, 14, 14, 256)  0           conv4_block6_1_bn[0][0]          \n",
            "__________________________________________________________________________________________________\n",
            "conv4_block6_2_conv (Conv2D)    (None, 14, 14, 256)  590080      conv4_block6_1_relu[0][0]        \n",
            "__________________________________________________________________________________________________\n",
            "conv4_block6_2_bn (BatchNormali (None, 14, 14, 256)  1024        conv4_block6_2_conv[0][0]        \n",
            "__________________________________________________________________________________________________\n",
            "conv4_block6_2_relu (Activation (None, 14, 14, 256)  0           conv4_block6_2_bn[0][0]          \n",
            "__________________________________________________________________________________________________\n",
            "conv4_block6_3_conv (Conv2D)    (None, 14, 14, 1024) 263168      conv4_block6_2_relu[0][0]        \n",
            "__________________________________________________________________________________________________\n",
            "conv4_block6_3_bn (BatchNormali (None, 14, 14, 1024) 4096        conv4_block6_3_conv[0][0]        \n",
            "__________________________________________________________________________________________________\n",
            "conv4_block6_add (Add)          (None, 14, 14, 1024) 0           conv4_block5_out[0][0]           \n",
            "                                                                 conv4_block6_3_bn[0][0]          \n",
            "__________________________________________________________________________________________________\n",
            "conv4_block6_out (Activation)   (None, 14, 14, 1024) 0           conv4_block6_add[0][0]           \n",
            "__________________________________________________________________________________________________\n",
            "conv5_block1_1_conv (Conv2D)    (None, 7, 7, 512)    524800      conv4_block6_out[0][0]           \n",
            "__________________________________________________________________________________________________\n",
            "conv5_block1_1_bn (BatchNormali (None, 7, 7, 512)    2048        conv5_block1_1_conv[0][0]        \n",
            "__________________________________________________________________________________________________\n",
            "conv5_block1_1_relu (Activation (None, 7, 7, 512)    0           conv5_block1_1_bn[0][0]          \n",
            "__________________________________________________________________________________________________\n",
            "conv5_block1_2_conv (Conv2D)    (None, 7, 7, 512)    2359808     conv5_block1_1_relu[0][0]        \n",
            "__________________________________________________________________________________________________\n",
            "conv5_block1_2_bn (BatchNormali (None, 7, 7, 512)    2048        conv5_block1_2_conv[0][0]        \n",
            "__________________________________________________________________________________________________\n",
            "conv5_block1_2_relu (Activation (None, 7, 7, 512)    0           conv5_block1_2_bn[0][0]          \n",
            "__________________________________________________________________________________________________\n",
            "conv5_block1_0_conv (Conv2D)    (None, 7, 7, 2048)   2099200     conv4_block6_out[0][0]           \n",
            "__________________________________________________________________________________________________\n",
            "conv5_block1_3_conv (Conv2D)    (None, 7, 7, 2048)   1050624     conv5_block1_2_relu[0][0]        \n",
            "__________________________________________________________________________________________________\n",
            "conv5_block1_0_bn (BatchNormali (None, 7, 7, 2048)   8192        conv5_block1_0_conv[0][0]        \n",
            "__________________________________________________________________________________________________\n",
            "conv5_block1_3_bn (BatchNormali (None, 7, 7, 2048)   8192        conv5_block1_3_conv[0][0]        \n",
            "__________________________________________________________________________________________________\n",
            "conv5_block1_add (Add)          (None, 7, 7, 2048)   0           conv5_block1_0_bn[0][0]          \n",
            "                                                                 conv5_block1_3_bn[0][0]          \n",
            "__________________________________________________________________________________________________\n",
            "conv5_block1_out (Activation)   (None, 7, 7, 2048)   0           conv5_block1_add[0][0]           \n",
            "__________________________________________________________________________________________________\n",
            "conv5_block2_1_conv (Conv2D)    (None, 7, 7, 512)    1049088     conv5_block1_out[0][0]           \n",
            "__________________________________________________________________________________________________\n",
            "conv5_block2_1_bn (BatchNormali (None, 7, 7, 512)    2048        conv5_block2_1_conv[0][0]        \n",
            "__________________________________________________________________________________________________\n",
            "conv5_block2_1_relu (Activation (None, 7, 7, 512)    0           conv5_block2_1_bn[0][0]          \n",
            "__________________________________________________________________________________________________\n",
            "conv5_block2_2_conv (Conv2D)    (None, 7, 7, 512)    2359808     conv5_block2_1_relu[0][0]        \n",
            "__________________________________________________________________________________________________\n",
            "conv5_block2_2_bn (BatchNormali (None, 7, 7, 512)    2048        conv5_block2_2_conv[0][0]        \n",
            "__________________________________________________________________________________________________\n",
            "conv5_block2_2_relu (Activation (None, 7, 7, 512)    0           conv5_block2_2_bn[0][0]          \n",
            "__________________________________________________________________________________________________\n",
            "conv5_block2_3_conv (Conv2D)    (None, 7, 7, 2048)   1050624     conv5_block2_2_relu[0][0]        \n",
            "__________________________________________________________________________________________________\n",
            "conv5_block2_3_bn (BatchNormali (None, 7, 7, 2048)   8192        conv5_block2_3_conv[0][0]        \n",
            "__________________________________________________________________________________________________\n",
            "conv5_block2_add (Add)          (None, 7, 7, 2048)   0           conv5_block1_out[0][0]           \n",
            "                                                                 conv5_block2_3_bn[0][0]          \n",
            "__________________________________________________________________________________________________\n",
            "conv5_block2_out (Activation)   (None, 7, 7, 2048)   0           conv5_block2_add[0][0]           \n",
            "__________________________________________________________________________________________________\n",
            "conv5_block3_1_conv (Conv2D)    (None, 7, 7, 512)    1049088     conv5_block2_out[0][0]           \n",
            "__________________________________________________________________________________________________\n",
            "conv5_block3_1_bn (BatchNormali (None, 7, 7, 512)    2048        conv5_block3_1_conv[0][0]        \n",
            "__________________________________________________________________________________________________\n",
            "conv5_block3_1_relu (Activation (None, 7, 7, 512)    0           conv5_block3_1_bn[0][0]          \n",
            "__________________________________________________________________________________________________\n",
            "conv5_block3_2_conv (Conv2D)    (None, 7, 7, 512)    2359808     conv5_block3_1_relu[0][0]        \n",
            "__________________________________________________________________________________________________\n",
            "conv5_block3_2_bn (BatchNormali (None, 7, 7, 512)    2048        conv5_block3_2_conv[0][0]        \n",
            "__________________________________________________________________________________________________\n",
            "conv5_block3_2_relu (Activation (None, 7, 7, 512)    0           conv5_block3_2_bn[0][0]          \n",
            "__________________________________________________________________________________________________\n",
            "conv5_block3_3_conv (Conv2D)    (None, 7, 7, 2048)   1050624     conv5_block3_2_relu[0][0]        \n",
            "__________________________________________________________________________________________________\n",
            "conv5_block3_3_bn (BatchNormali (None, 7, 7, 2048)   8192        conv5_block3_3_conv[0][0]        \n",
            "__________________________________________________________________________________________________\n",
            "conv5_block3_add (Add)          (None, 7, 7, 2048)   0           conv5_block2_out[0][0]           \n",
            "                                                                 conv5_block3_3_bn[0][0]          \n",
            "__________________________________________________________________________________________________\n",
            "conv5_block3_out (Activation)   (None, 7, 7, 2048)   0           conv5_block3_add[0][0]           \n",
            "__________________________________________________________________________________________________\n",
            "flatten (Flatten)               (None, 100352)       0           conv5_block3_out[0][0]           \n",
            "__________________________________________________________________________________________________\n",
            "dense_4 (Dense)                 (None, 2)            200706      flatten[0][0]                    \n",
            "==================================================================================================\n",
            "Total params: 23,788,418\n",
            "Trainable params: 200,706\n",
            "Non-trainable params: 23,587,712\n",
            "__________________________________________________________________________________________________\n",
…
        "model_trained, history = train_model(model_trained, trainX, trainY, num_epochs, batch_size)"
      ],
      "execution_count": 29,
      "outputs": [
        {
          "output_type": "stream",
          "text": [
            "Model: \"model_2\"\n",
            "__________________________________________________________________________________________________\n",
            "Layer (type)                    Output Shape         Param #     Connected to                     \n",
            "==================================================================================================\n",
            "input_3 (InputLayer)            [(None, 224, 224, 3) 0                                            \n",
            "__________________________________________________________________________________________________\n",
            "conv1_pad (ZeroPadding2D)       (None, 230, 230, 3)  0           input_3[0][0]                    \n",
            "__________________________________________________________________________________________________\n",
            "conv1_conv (Conv2D)             (None, 112, 112, 64) 9472        conv1_pad[0][0]                  \n",
            "__________________________________________________________________________________________________\n",
            "pool1_pad (ZeroPadding2D)       (None, 114, 114, 64) 0           conv1_conv[0][0]                 \n",
            "__________________________________________________________________________________________________\n",
            "pool1_pool (MaxPooling2D)       (None, 56, 56, 64)   0           pool1_pad[0][0]                  \n",
            "__________________________________________________________________________________________________\n",
            "conv2_block1_preact_bn (BatchNo (None, 56, 56, 64)   256         pool1_pool[0][0]                 \n",
            "__________________________________________________________________________________________________\n",
            "conv2_block1_preact_relu (Activ (None, 56, 56, 64)   0           conv2_block1_preact_bn[0][0]     \n",
            "__________________________________________________________________________________________________\n",
            "conv2_block1_1_conv (Conv2D)    (None, 56, 56, 64)   4096        conv2_block1_preact_relu[0][0]   \n",
            "__________________________________________________________________________________________________\n",
            "conv2_block1_1_bn (BatchNormali (None, 56, 56, 64)   256         conv2_block1_1_conv[0][0]        \n",
            "__________________________________________________________________________________________________\n",
            "conv2_block1_1_relu (Activation (None, 56, 56, 64)   0           conv2_block1_1_bn[0][0]          \n",
            "__________________________________________________________________________________________________\n",
            "conv2_block1_2_pad (ZeroPadding (None, 58, 58, 64)   0           conv2_block1_1_relu[0][0]        \n",
            "__________________________________________________________________________________________________\n",
            "conv2_block1_2_conv (Conv2D)    (None, 56, 56, 64)   36864       conv2_block1_2_pad[0][0]         \n",
            "__________________________________________________________________________________________________\n",
            "conv2_block1_2_bn (BatchNormali (None, 56, 56, 64)   256         conv2_block1_2_conv[0][0]        \n",
            "__________________________________________________________________________________________________\n",
            "conv2_block1_2_relu (Activation (None, 56, 56, 64)   0           conv2_block1_2_bn[0][0]          \n",
            "__________________________________________________________________________________________________\n",
            "conv2_block1_0_conv (Conv2D)    (None, 56, 56, 256)  16640       conv2_block1_preact_relu[0][0]   \n",
            "__________________________________________________________________________________________________\n",
            "conv2_block1_3_conv (Conv2D)    (None, 56, 56, 256)  16640       conv2_block1_2_relu[0][0]        \n",
            "__________________________________________________________________________________________________\n",
            "conv2_block1_out (Add)          (None, 56, 56, 256)  0           conv2_block1_0_conv[0][0]        \n",
            "                                                                 conv2_block1_3_conv[0][0]        \n",
            "__________________________________________________________________________________________________\n",
            "conv2_block2_preact_bn (BatchNo (None, 56, 56, 256)  1024        conv2_block1_out[0][0]           \n",
            "__________________________________________________________________________________________________\n",
            "conv2_block2_preact_relu (Activ (None, 56, 56, 256)  0           conv2_block2_preact_bn[0][0]     \n",
            "__________________________________________________________________________________________________\n",
            "conv2_block2_1_conv (Conv2D)    (None, 56, 56, 64)   16384       conv2_block2_preact_relu[0][0]   \n",
            "__________________________________________________________________________________________________\n",
            "conv2_block2_1_bn (BatchNormali (None, 56, 56, 64)   256         conv2_block2_1_conv[0][0]        \n",
            "__________________________________________________________________________________________________\n",
            "conv2_block2_1_relu (Activation (None, 56, 56, 64)   0           conv2_block2_1_bn[0][0]          \n",
            "__________________________________________________________________________________________________\n",
            "conv2_block2_2_pad (ZeroPadding (None, 58, 58, 64)   0           conv2_block2_1_relu[0][0]        \n",
            "__________________________________________________________________________________________________\n",
            "conv2_block2_2_conv (Conv2D)    (None, 56, 56, 64)   36864       conv2_block2_2_pad[0][0]         \n",
            "__________________________________________________________________________________________________\n",
            "conv2_block2_2_bn (BatchNormali (None, 56, 56, 64)   256         conv2_block2_2_conv[0][0]        \n",
            "__________________________________________________________________________________________________\n",
            "conv2_block2_2_relu (Activation (None, 56, 56, 64)   0           conv2_block2_2_bn[0][0]          \n",
            "__________________________________________________________________________________________________\n",
            "conv2_block2_3_conv (Conv2D)    (None, 56, 56, 256)  16640       conv2_block2_2_relu[0][0]        \n",
            "__________________________________________________________________________________________________\n",
            "conv2_block2_out (Add)          (None, 56, 56, 256)  0           conv2_block1_out[0][0]           \n",
            "                                                                 conv2_block2_3_conv[0][0]        \n",
            "__________________________________________________________________________________________________\n",
            "conv2_block3_preact_bn (BatchNo (None, 56, 56, 256)  1024        conv2_block2_out[0][0]           \n",
            "__________________________________________________________________________________________________\n",
            "conv2_block3_preact_relu (Activ (None, 56, 56, 256)  0           conv2_block3_preact_bn[0][0]     \n",
            "__________________________________________________________________________________________________\n",
            "conv2_block3_1_conv (Conv2D)    (None, 56, 56, 64)   16384       conv2_block3_preact_relu[0][0]   \n",
            "__________________________________________________________________________________________________\n",
            "conv2_block3_1_bn (BatchNormali (None, 56, 56, 64)   256         conv2_block3_1_conv[0][0]        \n",
            "__________________________________________________________________________________________________\n",
            "conv2_block3_1_relu (Activation (None, 56, 56, 64)   0           conv2_block3_1_bn[0][0]          \n",
            "__________________________________________________________________________________________________\n",
            "conv2_block3_2_pad (ZeroPadding (None, 58, 58, 64)   0           conv2_block3_1_relu[0][0]        \n",
            "__________________________________________________________________________________________________\n",
            "conv2_block3_2_conv (Conv2D)    (None, 28, 28, 64)   36864       conv2_block3_2_pad[0][0]         \n",
            "__________________________________________________________________________________________________\n",
            "conv2_block3_2_bn (BatchNormali (None, 28, 28, 64)   256         conv2_block3_2_conv[0][0]        \n",
            "__________________________________________________________________________________________________\n",
            "conv2_block3_2_relu (Activation (None, 28, 28, 64)   0           conv2_block3_2_bn[0][0]          \n",
            "__________________________________________________________________________________________________\n",
            "max_pooling2d_3 (MaxPooling2D)  (None, 28, 28, 256)  0           conv2_block2_out[0][0]           \n",
            "__________________________________________________________________________________________________\n",
            "conv2_block3_3_conv (Conv2D)    (None, 28, 28, 256)  16640       conv2_block3_2_relu[0][0]        \n",
            "__________________________________________________________________________________________________\n",
            "conv2_block3_out (Add)          (None, 28, 28, 256)  0           max_pooling2d_3[0][0]            \n",
            "                                                                 conv2_block3_3_conv[0][0]        \n",
            "__________________________________________________________________________________________________\n",
            "conv3_block1_preact_bn (BatchNo (None, 28, 28, 256)  1024        conv2_block3_out[0][0]           \n",
            "__________________________________________________________________________________________________\n",
            "conv3_block1_preact_relu (Activ (None, 28, 28, 256)  0           conv3_block1_preact_bn[0][0]     \n",
            "__________________________________________________________________________________________________\n",
            "conv3_block1_1_conv (Conv2D)    (None, 28, 28, 128)  32768       conv3_block1_preact_relu[0][0]   \n",
            "__________________________________________________________________________________________________\n",
            "conv3_block1_1_bn (BatchNormali (None, 28, 28, 128)  512         conv3_block1_1_conv[0][0]        \n",
            "__________________________________________________________________________________________________\n",
            "conv3_block1_1_relu (Activation (None, 28, 28, 128)  0           conv3_block1_1_bn[0][0]          \n",
            "__________________________________________________________________________________________________\n",
            "conv3_block1_2_pad (ZeroPadding (None, 30, 30, 128)  0           conv3_block1_1_relu[0][0]        \n",
            "__________________________________________________________________________________________________\n",
            "conv3_block1_2_conv (Conv2D)    (None, 28, 28, 128)  147456      conv3_block1_2_pad[0][0]         \n",
            "__________________________________________________________________________________________________\n",
            "conv3_block1_2_bn (BatchNormali (None, 28, 28, 128)  512         conv3_block1_2_conv[0][0]        \n",
            "__________________________________________________________________________________________________\n",
            "conv3_block1_2_relu (Activation (None, 28, 28, 128)  0           conv3_block1_2_bn[0][0]          \n",
            "__________________________________________________________________________________________________\n",
            "conv3_block1_0_conv (Conv2D)    (None, 28, 28, 512)  131584      conv3_block1_preact_relu[0][0]   \n",
            "__________________________________________________________________________________________________\n",
            "conv3_block1_3_conv (Conv2D)    (None, 28, 28, 512)  66048       conv3_block1_2_relu[0][0]        \n",
            "__________________________________________________________________________________________________\n",
            "conv3_block1_out (Add)          (None, 28, 28, 512)  0           conv3_block1_0_conv[0][0]        \n",
            "                                                                 conv3_block1_3_conv[0][0]        \n",
            "__________________________________________________________________________________________________\n",
            "conv3_block2_preact_bn (BatchNo (None, 28, 28, 512)  2048        conv3_block1_out[0][0]           \n",
            "__________________________________________________________________________________________________\n",
            "conv3_block2_preact_relu (Activ (None, 28, 28, 512)  0           conv3_block2_preact_bn[0][0]     \n",
            "__________________________________________________________________________________________________\n",
            "conv3_block2_1_conv (Conv2D)    (None, 28, 28, 128)  65536       conv3_block2_preact_relu[0][0]   \n",
            "__________________________________________________________________________________________________\n",
            "conv3_block2_1_bn (BatchNormali (None, 28, 28, 128)  512         conv3_block2_1_conv[0][0]        \n",
            "__________________________________________________________________________________________________\n",
            "conv3_block2_1_relu (Activation (None, 28, 28, 128)  0           conv3_block2_1_bn[0][0]          \n",
            "__________________________________________________________________________________________________\n",
            "conv3_block2_2_pad (ZeroPadding (None, 30, 30, 128)  0           conv3_block2_1_relu[0][0]        \n",
            "__________________________________________________________________________________________________\n",
            "conv3_block2_2_conv (Conv2D)    (None, 28, 28, 128)  147456      conv3_block2_2_pad[0][0]         \n",
            "__________________________________________________________________________________________________\n",
            "conv3_block2_2_bn (BatchNormali (None, 28, 28, 128)  512         conv3_block2_2_conv[0][0]        \n",
            "__________________________________________________________________________________________________\n",
            "conv3_block2_2_relu (Activation (None, 28, 28, 128)  0           conv3_block2_2_bn[0][0]          \n",
            "__________________________________________________________________________________________________\n",
            "conv3_block2_3_conv (Conv2D)    (None, 28, 28, 512)  66048       conv3_block2_2_relu[0][0]        \n",
            "__________________________________________________________________________________________________\n",
            "conv3_block2_out (Add)          (None, 28, 28, 512)  0           conv3_block1_out[0][0]           \n",
            "                                                                 conv3_block2_3_conv[0][0]        \n",
            "__________________________________________________________________________________________________\n",
            "conv3_block3_preact_bn (BatchNo (None, 28, 28, 512)  2048        conv3_block2_out[0][0]           \n",
            "__________________________________________________________________________________________________\n",
            "conv3_block3_preact_relu (Activ (None, 28, 28, 512)  0           conv3_block3_preact_bn[0][0]     \n",
            "__________________________________________________________________________________________________\n",
            "conv3_block3_1_conv (Conv2D)    (None, 28, 28, 128)  65536       conv3_block3_preact_relu[0][0]   \n",
            "__________________________________________________________________________________________________\n",
            "conv3_block3_1_bn (BatchNormali (None, 28, 28, 128)  512         conv3_block3_1_conv[0][0]        \n",
            "__________________________________________________________________________________________________\n",
            "conv3_block3_1_relu (Activation (None, 28, 28, 128)  0           conv3_block3_1_bn[0][0]          \n",
            "__________________________________________________________________________________________________\n",
            "conv3_block3_2_pad (ZeroPadding (None, 30, 30, 128)  0           conv3_block3_1_relu[0][0]        \n",
            "__________________________________________________________________________________________________\n",
            "conv3_block3_2_conv (Conv2D)    (None, 28, 28, 128)  147456      conv3_block3_2_pad[0][0]         \n",
            "__________________________________________________________________________________________________\n",
            "conv3_block3_2_bn (BatchNormali (None, 28, 28, 128)  512         conv3_block3_2_conv[0][0]        \n",
            "__________________________________________________________________________________________________\n",
            "conv3_block3_2_relu (Activation (None, 28, 28, 128)  0           conv3_block3_2_bn[0][0]          \n",
            "__________________________________________________________________________________________________\n",
            "conv3_block3_3_conv (Conv2D)    (None, 28, 28, 512)  66048       conv3_block3_2_relu[0][0]        \n",
            "__________________________________________________________________________________________________\n",
            "conv3_block3_out (Add)          (None, 28, 28, 512)  0           conv3_block2_out[0][0]           \n",
            "                                                                 conv3_block3_3_conv[0][0]        \n",
            "__________________________________________________________________________________________________\n",
            "conv3_block4_preact_bn (BatchNo (None, 28, 28, 512)  2048        conv3_block3_out[0][0]           \n",
            "__________________________________________________________________________________________________\n",
            "conv3_block4_preact_relu (Activ (None, 28, 28, 512)  0           conv3_block4_preact_bn[0][0]     \n",
            "__________________________________________________________________________________________________\n",
            "conv3_block4_1_conv (Conv2D)    (None, 28, 28, 128)  65536       conv3_block4_preact_relu[0][0]   \n",
            "__________________________________________________________________________________________________\n",
            "conv3_block4_1_bn (BatchNormali (None, 28, 28, 128)  512         conv3_block4_1_conv[0][0]        \n",
            "__________________________________________________________________________________________________\n",
            "conv3_block4_1_relu (Activation (None, 28, 28, 128)  0           conv3_block4_1_bn[0][0]          \n",
            "__________________________________________________________________________________________________\n",
            "conv3_block4_2_pad (ZeroPadding (None, 30, 30, 128)  0           conv3_block4_1_relu[0][0]        \n",
            "__________________________________________________________________________________________________\n",
            "conv3_block4_2_conv (Conv2D)    (None, 14, 14, 128)  147456      conv3_block4_2_pad[0][0]         \n",
            "__________________________________________________________________________________________________\n",
            "conv3_block4_2_bn (BatchNormali (None, 14, 14, 128)  512         conv3_block4_2_conv[0][0]        \n",
            "__________________________________________________________________________________________________\n",
            "conv3_block4_2_relu (Activation (None, 14, 14, 128)  0           conv3_block4_2_bn[0][0]          \n",
            "__________________________________________________________________________________________________\n",
            "max_pooling2d_4 (MaxPooling2D)  (None, 14, 14, 512)  0           conv3_block3_out[0][0]           \n",
            "__________________________________________________________________________________________________\n",
            "conv3_block4_3_conv (Conv2D)    (None, 14, 14, 512)  66048       conv3_block4_2_relu[0][0]        \n",
            "__________________________________________________________________________________________________\n",
            "conv3_block4_out (Add)          (None, 14, 14, 512)  0           max_pooling2d_4[0][0]            \n",
            "                                                                 conv3_block4_3_conv[0][0]        \n",
            "__________________________________________________________________________________________________\n",
            "conv4_block1_preact_bn (BatchNo (None, 14, 14, 512)  2048        conv3_block4_out[0][0]           \n",
            "__________________________________________________________________________________________________\n",
            "conv4_block1_preact_relu (Activ (None, 14, 14, 512)  0           conv4_block1_preact_bn[0][0]     \n",
            "__________________________________________________________________________________________________\n",
            "conv4_block1_1_conv (Conv2D)    (None, 14, 14, 256)  131072      conv4_block1_preact_relu[0][0]   \n",
            "__________________________________________________________________________________________________\n",
            "conv4_block1_1_bn (BatchNormali (None, 14, 14, 256)  1024        conv4_block1_1_conv[0][0]        \n",
            "__________________________________________________________________________________________________\n",
            "conv4_block1_1_relu (Activation (None, 14, 14, 256)  0           conv4_block1_1_bn[0][0]          \n",
            "__________________________________________________________________________________________________\n",
            "conv4_block1_2_pad (ZeroPadding (None, 16, 16, 256)  0           conv4_block1_1_relu[0][0]        \n",
            "__________________________________________________________________________________________________\n",
            "conv4_block1_2_conv (Conv2D)    (None, 14, 14, 256)  589824      conv4_block1_2_pad[0][0]         \n",
            "__________________________________________________________________________________________________\n",
            "conv4_block1_2_bn (BatchNormali (None, 14, 14, 256)  1024        conv4_block1_2_conv[0][0]        \n",
            "__________________________________________________________________________________________________\n",
            "conv4_block1_2_relu (Activation (None, 14, 14, 256)  0           conv4_block1_2_bn[0][0]          \n",
            "__________________________________________________________________________________________________\n",
            "conv4_block1_0_conv (Conv2D)    (None, 14, 14, 1024) 525312      conv4_block1_preact_relu[0][0]   \n",
            "__________________________________________________________________________________________________\n",
            "conv4_block1_3_conv (Conv2D)    (None, 14, 14, 1024) 263168      conv4_block1_2_relu[0][0]        \n",
            "__________________________________________________________________________________________________\n",
            "conv4_block1_out (Add)          (None, 14, 14, 1024) 0           conv4_block1_0_conv[0][0]        \n",
            "                                                                 conv4_block1_3_conv[0][0]        \n",
            "__________________________________________________________________________________________________\n",
            "conv4_block2_preact_bn (BatchNo (None, 14, 14, 1024) 4096        conv4_block1_out[0][0]           \n",
            "__________________________________________________________________________________________________\n",
            "conv4_block2_preact_relu (Activ (None, 14, 14, 1024) 0           conv4_block2_preact_bn[0][0]     \n",
            "__________________________________________________________________________________________________\n",
            "conv4_block2_1_conv (Conv2D)    (None, 14, 14, 256)  262144      conv4_block2_preact_relu[0][0]   \n",
            "__________________________________________________________________________________________________\n",
            "conv4_block2_1_bn (BatchNormali (None, 14, 14, 256)  1024        conv4_block2_1_conv[0][0]        \n",
            "__________________________________________________________________________________________________\n",
            "conv4_block2_1_relu (Activation (None, 14, 14, 256)  0           conv4_block2_1_bn[0][0]          \n",
            "__________________________________________________________________________________________________\n",
            "conv4_block2_2_pad (ZeroPadding (None, 16, 16, 256)  0           conv4_block2_1_relu[0][0]        \n",
            "__________________________________________________________________________________________________\n",
            "conv4_block2_2_conv (Conv2D)    (None, 14, 14, 256)  589824      conv4_block2_2_pad[0][0]         \n",
            "__________________________________________________________________________________________________\n",
            "conv4_block2_2_bn (BatchNormali (None, 14, 14, 256)  1024        conv4_block2_2_conv[0][0]        \n",
            "__________________________________________________________________________________________________\n",
            "conv4_block2_2_relu (Activation (None, 14, 14, 256)  0           conv4_block2_2_bn[0][0]          \n",
            "__________________________________________________________________________________________________\n",
            "conv4_block2_3_conv (Conv2D)    (None, 14, 14, 1024) 263168      conv4_block2_2_relu[0][0]        \n",
            "__________________________________________________________________________________________________\n",
            "conv4_block2_out (Add)          (None, 14, 14, 1024) 0           conv4_block1_out[0][0]           \n",
            "                                                                 conv4_block2_3_conv[0][0]        \n",
            "__________________________________________________________________________________________________\n",
            "conv4_block3_preact_bn (BatchNo (None, 14, 14, 1024) 4096        conv4_block2_out[0][0]           \n",
            "__________________________________________________________________________________________________\n",
            "conv4_block3_preact_relu (Activ (None, 14, 14, 1024) 0           conv4_block3_preact_bn[0][0]     \n",
            "__________________________________________________________________________________________________\n",
            "conv4_block3_1_conv (Conv2D)    (None, 14, 14, 256)  262144      conv4_block3_preact_relu[0][0]   \n",
            "__________________________________________________________________________________________________\n",
            "conv4_block3_1_bn (BatchNormali (None, 14, 14, 256)  1024        conv4_block3_1_conv[0][0]        \n",
            "__________________________________________________________________________________________________\n",
            "conv4_block3_1_relu (Activation (None, 14, 14, 256)  0           conv4_block3_1_bn[0][0]          \n",
            "__________________________________________________________________________________________________\n",
            "conv4_block3_2_pad (ZeroPadding (None, 16, 16, 256)  0           conv4_block3_1_relu[0][0]        \n",
            "__________________________________________________________________________________________________\n",
            "conv4_block3_2_conv (Conv2D)    (None, 14, 14, 256)  589824      conv4_block3_2_pad[0][0]         \n",
            "__________________________________________________________________________________________________\n",
            "conv4_block3_2_bn (BatchNormali (None, 14, 14, 256)  1024        conv4_block3_2_conv[0][0]        \n",
            "__________________________________________________________________________________________________\n",
            "conv4_block3_2_relu (Activation (None, 14, 14, 256)  0           conv4_block3_2_bn[0][0]          \n",
            "__________________________________________________________________________________________________\n",
            "conv4_block3_3_conv (Conv2D)    (None, 14, 14, 1024) 263168      conv4_block3_2_relu[0][0]        \n",
            "__________________________________________________________________________________________________\n",
            "conv4_block3_out (Add)          (None, 14, 14, 1024) 0           conv4_block2_out[0][0]           \n",
            "                                                                 conv4_block3_3_conv[0][0]        \n",
            "__________________________________________________________________________________________________\n",
            "conv4_block4_preact_bn (BatchNo (None, 14, 14, 1024) 4096        conv4_block3_out[0][0]           \n",
            "__________________________________________________________________________________________________\n",
            "conv4_block4_preact_relu (Activ (None, 14, 14, 1024) 0           conv4_block4_preact_bn[0][0]     \n",
            "__________________________________________________________________________________________________\n",
            "conv4_block4_1_conv (Conv2D)    (None, 14, 14, 256)  262144      conv4_block4_preact_relu[0][0]   \n",
            "__________________________________________________________________________________________________\n",
            "conv4_block4_1_bn (BatchNormali (None, 14, 14, 256)  1024        conv4_block4_1_conv[0][0]        \n",
            "__________________________________________________________________________________________________\n",
            "conv4_block4_1_relu (Activation (None, 14, 14, 256)  0           conv4_block4_1_bn[0][0]          \n",
            "__________________________________________________________________________________________________\n",
            "conv4_block4_2_pad (ZeroPadding (None, 16, 16, 256)  0           conv4_block4_1_relu[0][0]        \n",
            "__________________________________________________________________________________________________\n",
            "conv4_block4_2_conv (Conv2D)    (None, 14, 14, 256)  589824      conv4_block4_2_pad[0][0]         \n",
            "__________________________________________________________________________________________________\n",
            "conv4_block4_2_bn (BatchNormali (None, 14, 14, 256)  1024        conv4_block4_2_conv[0][0]        \n",
            "__________________________________________________________________________________________________\n",
            "conv4_block4_2_relu (Activation (None, 14, 14, 256)  0           conv4_block4_2_bn[0][0]          \n",
            "__________________________________________________________________________________________________\n",
            "conv4_block4_3_conv (Conv2D)    (None, 14, 14, 1024) 263168      conv4_block4_2_relu[0][0]        \n",
            "__________________________________________________________________________________________________\n",
            "conv4_block4_out (Add)          (None, 14, 14, 1024) 0           conv4_block3_out[0][0]           \n",
            "                                                                 conv4_block4_3_conv[0][0]        \n",
            "__________________________________________________________________________________________________\n",
            "conv4_block5_preact_bn (BatchNo (None, 14, 14, 1024) 4096        conv4_block4_out[0][0]           \n",
            "__________________________________________________________________________________________________\n",
            "conv4_block5_preact_relu (Activ (None, 14, 14, 1024) 0           conv4_block5_preact_bn[0][0]     \n",
            "__________________________________________________________________________________________________\n",
            "conv4_block5_1_conv (Conv2D)    (None, 14, 14, 256)  262144      conv4_block5_preact_relu[0][0]   \n",
            "__________________________________________________________________________________________________\n",
            "conv4_block5_1_bn (BatchNormali (None, 14, 14, 256)  1024        conv4_block5_1_conv[0][0]        \n",
            "__________________________________________________________________________________________________\n",
            "conv4_block5_1_relu (Activation (None, 14, 14, 256)  0           conv4_block5_1_bn[0][0]          \n",
            "__________________________________________________________________________________________________\n",
            "conv4_block5_2_pad (ZeroPadding (None, 16, 16, 256)  0           conv4_block5_1_relu[0][0]        \n",
            "__________________________________________________________________________________________________\n",
            "conv4_block5_2_conv (Conv2D)    (None, 14, 14, 256)  589824      conv4_block5_2_pad[0][0]         \n",
            "__________________________________________________________________________________________________\n",
            "conv4_block5_2_bn (BatchNormali (None, 14, 14, 256)  1024        conv4_block5_2_conv[0][0]        \n",
            "__________________________________________________________________________________________________\n",
            "conv4_block5_2_relu (Activation (None, 14, 14, 256)  0           conv4_block5_2_bn[0][0]          \n",
            "__________________________________________________________________________________________________\n",
            "conv4_block5_3_conv (Conv2D)    (None, 14, 14, 1024) 263168      conv4_block5_2_relu[0][0]        \n",
            "__________________________________________________________________________________________________\n",
            "conv4_block5_out (Add)          (None, 14, 14, 1024) 0           conv4_block4_out[0][0]           \n",
            "                                                                 conv4_block5_3_conv[0][0]        \n",
            "__________________________________________________________________________________________________\n",
            "conv4_block6_preact_bn (BatchNo (None, 14, 14, 1024) 4096        conv4_block5_out[0][0]           \n",
            "__________________________________________________________________________________________________\n",
            "conv4_block6_preact_relu (Activ (None, 14, 14, 1024) 0           conv4_block6_preact_bn[0][0]     \n",
            "__________________________________________________________________________________________________\n",
            "conv4_block6_1_conv (Conv2D)    (None, 14, 14, 256)  262144      conv4_block6_preact_relu[0][0]   \n",
            "__________________________________________________________________________________________________\n",
            "conv4_block6_1_bn (BatchNormali (None, 14, 14, 256)  1024        conv4_block6_1_conv[0][0]        \n",
            "__________________________________________________________________________________________________\n",
            "conv4_block6_1_relu (Activation (None, 14, 14, 256)  0           conv4_block6_1_bn[0][0]          \n",
            "__________________________________________________________________________________________________\n",
            "conv4_block6_2_pad (ZeroPadding (None, 16, 16, 256)  0           conv4_block6_1_relu[0][0]        \n",
            "__________________________________________________________________________________________________\n",
            "conv4_block6_2_conv (Conv2D)    (None, 14, 14, 256)  589824      conv4_block6_2_pad[0][0]         \n",
            "__________________________________________________________________________________________________\n",
            "conv4_block6_2_bn (BatchNormali (None, 14, 14, 256)  1024        conv4_block6_2_conv[0][0]        \n",
            "__________________________________________________________________________________________________\n",
            "conv4_block6_2_relu (Activation (None, 14, 14, 256)  0           conv4_block6_2_bn[0][0]          \n",
            "__________________________________________________________________________________________________\n",
            "conv4_block6_3_conv (Conv2D)    (None, 14, 14, 1024) 263168      conv4_block6_2_relu[0][0]        \n",
            "__________________________________________________________________________________________________\n",
            "conv4_block6_out (Add)          (None, 14, 14, 1024) 0           conv4_block5_out[0][0]           \n",
            "                                                                 conv4_block6_3_conv[0][0]        \n",
            "__________________________________________________________________________________________________\n",
            "conv4_block7_preact_bn (BatchNo (None, 14, 14, 1024) 4096        conv4_block6_out[0][0]           \n",
            "__________________________________________________________________________________________________\n",
            "conv4_block7_preact_relu (Activ (None, 14, 14, 1024) 0           conv4_block7_preact_bn[0][0]     \n",
            "__________________________________________________________________________________________________\n",
            "conv4_block7_1_conv (Conv2D)    (None, 14, 14, 256)  262144      conv4_block7_preact_relu[0][0]   \n",
            "__________________________________________________________________________________________________\n",
            "conv4_block7_1_bn (BatchNormali (None, 14, 14, 256)  1024        conv4_block7_1_conv[0][0]        \n",
            "__________________________________________________________________________________________________\n",
            "conv4_block7_1_relu (Activation (None, 14, 14, 256)  0           conv4_block7_1_bn[0][0]          \n",
            "__________________________________________________________________________________________________\n",
            "conv4_block7_2_pad (ZeroPadding (None, 16, 16, 256)  0           conv4_block7_1_relu[0][0]        \n",
            "__________________________________________________________________________________________________\n",
            "conv4_block7_2_conv (Conv2D)    (None, 14, 14, 256)  589824      conv4_block7_2_pad[0][0]         \n",
            "__________________________________________________________________________________________________\n",
            "conv4_block7_2_bn (BatchNormali (None, 14, 14, 256)  1024        conv4_block7_2_conv[0][0]        \n",
            "__________________________________________________________________________________________________\n",
            "conv4_block7_2_relu (Activation (None, 14, 14, 256)  0           conv4_block7_2_bn[0][0]          \n",
            "__________________________________________________________________________________________________\n",
            "conv4_block7_3_conv (Conv2D)    (None, 14, 14, 1024) 263168      conv4_block7_2_relu[0][0]        \n",
            "__________________________________________________________________________________________________\n",
            "conv4_block7_out (Add)          (None, 14, 14, 1024) 0           conv4_block6_out[0][0]           \n",
            "                                                                 conv4_block7_3_conv[0][0]        \n",
            "__________________________________________________________________________________________________\n",
            "conv4_block8_preact_bn (BatchNo (None, 14, 14, 1024) 4096        conv4_block7_out[0][0]           \n",
            "__________________________________________________________________________________________________\n",
            "conv4_block8_preact_relu (Activ (None, 14, 14, 1024) 0           conv4_block8_preact_bn[0][0]     \n",
            "__________________________________________________________________________________________________\n",
            "conv4_block8_1_conv (Conv2D)    (None, 14, 14, 256)  262144      conv4_block8_preact_relu[0][0]   \n",
            "__________________________________________________________________________________________________\n",
            "conv4_block8_1_bn (BatchNormali (None, 14, 14, 256)  1024        conv4_block8_1_conv[0][0]        \n",
            "__________________________________________________________________________________________________\n",
            "conv4_block8_1_relu (Activation (None, 14, 14, 256)  0           conv4_block8_1_bn[0][0]          \n",
            "__________________________________________________________________________________________________\n",
            "conv4_block8_2_pad (ZeroPadding (None, 16, 16, 256)  0           conv4_block8_1_relu[0][0]        \n",
            "__________________________________________________________________________________________________\n",
            "conv4_block8_2_conv (Conv2D)    (None, 14, 14, 256)  589824      conv4_block8_2_pad[0][0]         \n",
            "__________________________________________________________________________________________________\n",
            "conv4_block8_2_bn (BatchNormali (None, 14, 14, 256)  1024        conv4_block8_2_conv[0][0]        \n",
            "__________________________________________________________________________________________________\n",
            "conv4_block8_2_relu (Activation (None, 14, 14, 256)  0           conv4_block8_2_bn[0][0]          \n",
            "__________________________________________________________________________________________________\n",
            "conv4_block8_3_conv (Conv2D)    (None, 14, 14, 1024) 263168      conv4_block8_2_relu[0][0]        \n",
            "__________________________________________________________________________________________________\n",
            "conv4_block8_out (Add)          (None, 14, 14, 1024) 0           conv4_block7_out[0][0]           \n",
            "                                                                 conv4_block8_3_conv[0][0]        \n",
            "__________________________________________________________________________________________________\n",
            "conv4_block9_preact_bn (BatchNo (None, 14, 14, 1024) 4096        conv4_block8_out[0][0]           \n",
            "__________________________________________________________________________________________________\n",
            "conv4_block9_preact_relu (Activ (None, 14, 14, 1024) 0           conv4_block9_preact_bn[0][0]     \n",
            "__________________________________________________________________________________________________\n",
            "conv4_block9_1_conv (Conv2D)    (None, 14, 14, 256)  262144      conv4_block9_preact_relu[0][0]   \n",
            "__________________________________________________________________________________________________\n",
            "conv4_block9_1_bn (BatchNormali (None, 14, 14, 256)  1024        conv4_block9_1_conv[0][0]        \n",
            "__________________________________________________________________________________________________\n",
            "conv4_block9_1_relu (Activation (None, 14, 14, 256)  0           conv4_block9_1_bn[0][0]          \n",
            "__________________________________________________________________________________________________\n",
            "conv4_block9_2_pad (ZeroPadding (None, 16, 16, 256)  0           conv4_block9_1_relu[0][0]        \n",
            "__________________________________________________________________________________________________\n",
            "conv4_block9_2_conv (Conv2D)    (None, 14, 14, 256)  589824      conv4_block9_2_pad[0][0]         \n",
            "__________________________________________________________________________________________________\n",
            "conv4_block9_2_bn (BatchNormali (None, 14, 14, 256)  1024        conv4_block9_2_conv[0][0]        \n",
            "__________________________________________________________________________________________________\n",
            "conv4_block9_2_relu (Activation (None, 14, 14, 256)  0           conv4_block9_2_bn[0][0]          \n",
            "__________________________________________________________________________________________________\n",
            "conv4_block9_3_conv (Conv2D)    (None, 14, 14, 1024) 263168      conv4_block9_2_relu[0][0]        \n",
            "__________________________________________________________________________________________________\n",
            "conv4_block9_out (Add)          (None, 14, 14, 1024) 0           conv4_block8_out[0][0]           \n",
            "                                                                 conv4_block9_3_conv[0][0]        \n",
            "__________________________________________________________________________________________________\n",
            "conv4_block10_preact_bn (BatchN (None, 14, 14, 1024) 4096        conv4_block9_out[0][0]           \n",
            "__________________________________________________________________________________________________\n",
            "conv4_block10_preact_relu (Acti (None, 14, 14, 1024) 0           conv4_block10_preact_bn[0][0]    \n",
            "__________________________________________________________________________________________________\n",
            "conv4_block10_1_conv (Conv2D)   (None, 14, 14, 256)  262144      conv4_block10_preact_relu[0][0]  \n",
            "__________________________________________________________________________________________________\n",
            "conv4_block10_1_bn (BatchNormal (None, 14, 14, 256)  1024        conv4_block10_1_conv[0][0]       \n",
            "__________________________________________________________________________________________________\n",
            "conv4_block10_1_relu (Activatio (None, 14, 14, 256)  0           conv4_block10_1_bn[0][0]         \n",
            "__________________________________________________________________________________________________\n",
            "conv4_block10_2_pad (ZeroPaddin (None, 16, 16, 256)  0           conv4_block10_1_relu[0][0]       \n",
            "__________________________________________________________________________________________________\n",
            "conv4_block10_2_conv (Conv2D)   (None, 14, 14, 256)  589824      conv4_block10_2_pad[0][0]        \n",
            "__________________________________________________________________________________________________\n",
            "conv4_block10_2_bn (BatchNormal (None, 14, 14, 256)  1024        conv4_block10_2_conv[0][0]       \n",
            "__________________________________________________________________________________________________\n",
            "conv4_block10_2_relu (Activatio (None, 14, 14, 256)  0           conv4_block10_2_bn[0][0]         \n",
            "__________________________________________________________________________________________________\n",
            "conv4_block10_3_conv (Conv2D)   (None, 14, 14, 1024) 263168      conv4_block10_2_relu[0][0]       \n",
            "__________________________________________________________________________________________________\n",
            "conv4_block10_out (Add)         (None, 14, 14, 1024) 0           conv4_block9_out[0][0]           \n",
            "                                                                 conv4_block10_3_conv[0][0]       \n",
            "__________________________________________________________________________________________________\n",
            "conv4_block11_preact_bn (BatchN (None, 14, 14, 1024) 4096        conv4_block10_out[0][0]          \n",
            "__________________________________________________________________________________________________\n",
            "conv4_block11_preact_relu (Acti (None, 14, 14, 1024) 0           conv4_block11_preact_bn[0][0]    \n",
            "__________________________________________________________________________________________________\n",
            "conv4_block11_1_conv (Conv2D)   (None, 14, 14, 256)  262144      conv4_block11_preact_relu[0][0]  \n",
            "__________________________________________________________________________________________________\n",
            "conv4_block11_1_bn (BatchNormal (None, 14, 14, 256)  1024        conv4_block11_1_conv[0][0]       \n",
            "__________________________________________________________________________________________________\n",
            "conv4_block11_1_relu (Activatio (None, 14, 14, 256)  0           conv4_block11_1_bn[0][0]         \n",
            "__________________________________________________________________________________________________\n",
            "conv4_block11_2_pad (ZeroPaddin (None, 16, 16, 256)  0           conv4_block11_1_relu[0][0]       \n",
            "__________________________________________________________________________________________________\n",
            "conv4_block11_2_conv (Conv2D)   (None, 14, 14, 256)  589824      conv4_block11_2_pad[0][0]        \n",
            "__________________________________________________________________________________________________\n",
            "conv4_block11_2_bn (BatchNormal (None, 14, 14, 256)  1024        conv4_block11_2_conv[0][0]       \n",
            "__________________________________________________________________________________________________\n",
            "conv4_block11_2_relu (Activatio (None, 14, 14, 256)  0           conv4_block11_2_bn[0][0]         \n",
            "__________________________________________________________________________________________________\n",
            "conv4_block11_3_conv (Conv2D)   (None, 14, 14, 1024) 263168      conv4_block11_2_relu[0][0]       \n",
            "__________________________________________________________________________________________________\n",
            "conv4_block11_out (Add)         (None, 14, 14, 1024) 0           conv4_block10_out[0][0]          \n",
            "                                                                 conv4_block11_3_conv[0][0]       \n",
            "__________________________________________________________________________________________________\n",
            "conv4_block12_preact_bn (BatchN (None, 14, 14, 1024) 4096        conv4_block11_out[0][0]          \n",
            "__________________________________________________________________________________________________\n",
            "conv4_block12_preact_relu (Acti (None, 14, 14, 1024) 0           conv4_block12_preact_bn[0][0]    \n",
            "__________________________________________________________________________________________________\n",
            "conv4_block12_1_conv (Conv2D)   (None, 14, 14, 256)  262144      conv4_block12_preact_relu[0][0]  \n",
            "__________________________________________________________________________________________________\n",
            "conv4_block12_1_bn (BatchNormal (None, 14, 14, 256)  1024        conv4_block12_1_conv[0][0]       \n",
            "__________________________________________________________________________________________________\n",
            "conv4_block12_1_relu (Activatio (None, 14, 14, 256)  0           conv4_block12_1_bn[0][0]         \n",
            "__________________________________________________________________________________________________\n",
            "conv4_block12_2_pad (ZeroPaddin (None, 16, 16, 256)  0           conv4_block12_1_relu[0][0]       \n",
            "__________________________________________________________________________________________________\n",
            "conv4_block12_2_conv (Conv2D)   (None, 14, 14, 256)  589824      conv4_block12_2_pad[0][0]        \n",
            "__________________________________________________________________________________________________\n",
            "conv4_block12_2_bn (BatchNormal (None, 14, 14, 256)  1024        conv4_block12_2_conv[0][0]       \n",
            "__________________________________________________________________________________________________\n",
            "conv4_block12_2_relu (Activatio (None, 14, 14, 256)  0           conv4_block12_2_bn[0][0]         \n",
            "__________________________________________________________________________________________________\n",
            "conv4_block12_3_conv (Conv2D)   (None, 14, 14, 1024) 263168      conv4_block12_2_relu[0][0]       \n",
            "__________________________________________________________________________________________________\n",
            "conv4_block12_out (Add)         (None, 14, 14, 1024) 0           conv4_block11_out[0][0]          \n",
            "                                                                 conv4_block12_3_conv[0][0]       \n",
            "__________________________________________________________________________________________________\n",
            "conv4_block13_preact_bn (BatchN (None, 14, 14, 1024) 4096        conv4_block12_out[0][0]          \n",
            "__________________________________________________________________________________________________\n",
            "conv4_block13_preact_relu (Acti (None, 14, 14, 1024) 0           conv4_block13_preact_bn[0][0]    \n",
            "__________________________________________________________________________________________________\n",
            "conv4_block13_1_conv (Conv2D)   (None, 14, 14, 256)  262144      conv4_block13_preact_relu[0][0]  \n",
            "__________________________________________________________________________________________________\n",
            "conv4_block13_1_bn (BatchNormal (None, 14, 14, 256)  1024        conv4_block13_1_conv[0][0]       \n",
            "__________________________________________________________________________________________________\n",
            "conv4_block13_1_relu (Activatio (None, 14, 14, 256)  0           conv4_block13_1_bn[0][0]         \n",
            "__________________________________________________________________________________________________\n",
            "conv4_block13_2_pad (ZeroPaddin (None, 16, 16, 256)  0           conv4_block13_1_relu[0][0]       \n",
            "__________________________________________________________________________________________________\n",
            "conv4_block13_2_conv (Conv2D)   (None, 14, 14, 256)  589824      conv4_block13_2_pad[0][0]        \n",
            "__________________________________________________________________________________________________\n",
            "conv4_block13_2_bn (BatchNormal (None, 14, 14, 256)  1024        conv4_block13_2_conv[0][0]       \n",
            "__________________________________________________________________________________________________\n",
            "conv4_block13_2_relu (Activatio (None, 14, 14, 256)  0           conv4_block13_2_bn[0][0]         \n",
            "__________________________________________________________________________________________________\n",
            "conv4_block13_3_conv (Conv2D)   (None, 14, 14, 1024) 263168      conv4_block13_2_relu[0][0]       \n",
            "__________________________________________________________________________________________________\n",
            "conv4_block13_out (Add)         (None, 14, 14, 1024) 0           conv4_block12_out[0][0]          \n",
            "                                                                 conv4_block13_3_conv[0][0]       \n",
            "__________________________________________________________________________________________________\n",
            "conv4_block14_preact_bn (BatchN (None, 14, 14, 1024) 4096        conv4_block13_out[0][0]          \n",
            "__________________________________________________________________________________________________\n",
            "conv4_block14_preact_relu (Acti (None, 14, 14, 1024) 0           conv4_block14_preact_bn[0][0]    \n",
            "__________________________________________________________________________________________________\n",
            "conv4_block14_1_conv (Conv2D)   (None, 14, 14, 256)  262144      conv4_block14_preact_relu[0][0]  \n",
            "__________________________________________________________________________________________________\n",
            "conv4_block14_1_bn (BatchNormal (None, 14, 14, 256)  1024        conv4_block14_1_conv[0][0]       \n",
            "__________________________________________________________________________________________________\n",
            "conv4_block14_1_relu (Activatio (None, 14, 14, 256)  0           conv4_block14_1_bn[0][0]         \n",
            "__________________________________________________________________________________________________\n",
            "conv4_block14_2_pad (ZeroPaddin (None, 16, 16, 256)  0           conv4_block14_1_relu[0][0]       \n",
            "__________________________________________________________________________________________________\n",
            "conv4_block14_2_conv (Conv2D)   (None, 14, 14, 256)  589824      conv4_block14_2_pad[0][0]        \n",
            "__________________________________________________________________________________________________\n",
            "conv4_block14_2_bn (BatchNormal (None, 14, 14, 256)  1024        conv4_block14_2_conv[0][0]       \n",
            "__________________________________________________________________________________________________\n",
            "conv4_block14_2_relu (Activatio (None, 14, 14, 256)  0           conv4_block14_2_bn[0][0]         \n",
            "__________________________________________________________________________________________________\n",
            "conv4_block14_3_conv (Conv2D)   (None, 14, 14, 1024) 263168      conv4_block14_2_relu[0][0]       \n",
            "__________________________________________________________________________________________________\n",
            "conv4_block14_out (Add)         (None, 14, 14, 1024) 0           conv4_block13_out[0][0]          \n",
            "                                                                 conv4_block14_3_conv[0][0]       \n",
            "__________________________________________________________________________________________________\n",
            "conv4_block15_preact_bn (BatchN (None, 14, 14, 1024) 4096        conv4_block14_out[0][0]          \n",
            "__________________________________________________________________________________________________\n",
            "conv4_block15_preact_relu (Acti (None, 14, 14, 1024) 0           conv4_block15_preact_bn[0][0]    \n",
            "__________________________________________________________________________________________________\n",
            "conv4_block15_1_conv (Conv2D)   (None, 14, 14, 256)  262144      conv4_block15_preact_relu[0][0]  \n",
            "__________________________________________________________________________________________________\n",
            "conv4_block15_1_bn (BatchNormal (None, 14, 14, 256)  1024        conv4_block15_1_conv[0][0]       \n",
            "__________________________________________________________________________________________________\n",
            "conv4_block15_1_relu (Activatio (None, 14, 14, 256)  0           conv4_block15_1_bn[0][0]         \n",
            "__________________________________________________________________________________________________\n",
            "conv4_block15_2_pad (ZeroPaddin (None, 16, 16, 256)  0           conv4_block15_1_relu[0][0]       \n",
            "__________________________________________________________________________________________________\n",
            "conv4_block15_2_conv (Conv2D)   (None, 14, 14, 256)  589824      conv4_block15_2_pad[0][0]        \n",
            "__________________________________________________________________________________________________\n",
            "conv4_block15_2_bn (BatchNormal (None, 14, 14, 256)  1024        conv4_block15_2_conv[0][0]       \n",
            "__________________________________________________________________________________________________\n",
            "conv4_block15_2_relu (Activatio (None, 14, 14, 256)  0           conv4_block15_2_bn[0][0]         \n",
            "__________________________________________________________________________________________________\n",
            "conv4_block15_3_conv (Conv2D)   (None, 14, 14, 1024) 263168      conv4_block15_2_relu[0][0]       \n",
            "__________________________________________________________________________________________________\n",
            "conv4_block15_out (Add)         (None, 14, 14, 1024) 0           conv4_block14_out[0][0]          \n",
            "                                                                 conv4_block15_3_conv[0][0]       \n",
            "__________________________________________________________________________________________________\n",
            "conv4_block16_preact_bn (BatchN (None, 14, 14, 1024) 4096        conv4_block15_out[0][0]          \n",
            "__________________________________________________________________________________________________\n",
            "conv4_block16_preact_relu (Acti (None, 14, 14, 1024) 0           conv4_block16_preact_bn[0][0]    \n",
            "__________________________________________________________________________________________________\n",
            "conv4_block16_1_conv (Conv2D)   (None, 14, 14, 256)  262144      conv4_block16_preact_relu[0][0]  \n",
            "__________________________________________________________________________________________________\n",
            "conv4_block16_1_bn (BatchNormal (None, 14, 14, 256)  1024        conv4_block16_1_conv[0][0]       \n",
            "__________________________________________________________________________________________________\n",
            "conv4_block16_1_relu (Activatio (None, 14, 14, 256)  0           conv4_block16_1_bn[0][0]         \n",
            "__________________________________________________________________________________________________\n",
            "conv4_block16_2_pad (ZeroPaddin (None, 16, 16, 256)  0           conv4_block16_1_relu[0][0]       \n",
            "__________________________________________________________________________________________________\n",
            "conv4_block16_2_conv (Conv2D)   (None, 14, 14, 256)  589824      conv4_block16_2_pad[0][0]        \n",
            "__________________________________________________________________________________________________\n",
            "conv4_block16_2_bn (BatchNormal (None, 14, 14, 256)  1024        conv4_block16_2_conv[0][0]       \n",
            "__________________________________________________________________________________________________\n",
            "conv4_block16_2_relu (Activatio (None, 14, 14, 256)  0           conv4_block16_2_bn[0][0]         \n",
            "__________________________________________________________________________________________________\n",
            "conv4_block16_3_conv (Conv2D)   (None, 14, 14, 1024) 263168      conv4_block16_2_relu[0][0]       \n",
            "__________________________________________________________________________________________________\n",
            "conv4_block16_out (Add)         (None, 14, 14, 1024) 0           conv4_block15_out[0][0]          \n",
            "                                                                 conv4_block16_3_conv[0][0]       \n",
            "__________________________________________________________________________________________________\n",
            "conv4_block17_preact_bn (BatchN (None, 14, 14, 1024) 4096        conv4_block16_out[0][0]          \n",
            "__________________________________________________________________________________________________\n",
            "conv4_block17_preact_relu (Acti (None, 14, 14, 1024) 0           conv4_block17_preact_bn[0][0]    \n",
            "__________________________________________________________________________________________________\n",
            "conv4_block17_1_conv (Conv2D)   (None, 14, 14, 256)  262144      conv4_block17_preact_relu[0][0]  \n",
            "__________________________________________________________________________________________________\n",
            "conv4_block17_1_bn (BatchNormal (None, 14, 14, 256)  1024        conv4_block17_1_conv[0][0]       \n",
            "__________________________________________________________________________________________________\n",
            "conv4_block17_1_relu (Activatio (None, 14, 14, 256)  0           conv4_block17_1_bn[0][0]         \n",
            "__________________________________________________________________________________________________\n",
            "conv4_block17_2_pad (ZeroPaddin (None, 16, 16, 256)  0           conv4_block17_1_relu[0][0]       \n",
            "__________________________________________________________________________________________________\n",
            "conv4_block17_2_conv (Conv2D)   (None, 14, 14, 256)  589824      conv4_block17_2_pad[0][0]        \n",
            "__________________________________________________________________________________________________\n",
            "conv4_block17_2_bn (BatchNormal (None, 14, 14, 256)  1024        conv4_block17_2_conv[0][0]       \n",
            "__________________________________________________________________________________________________\n",
            "conv4_block17_2_relu (Activatio (None, 14, 14, 256)  0           conv4_block17_2_bn[0][0]         \n",
            "__________________________________________________________________________________________________\n",
            "conv4_block17_3_conv (Conv2D)   (None, 14, 14, 1024) 263168      conv4_block17_2_relu[0][0]       \n",
            "__________________________________________________________________________________________________\n",
            "conv4_block17_out (Add)         (None, 14, 14, 1024) 0           conv4_block16_out[0][0]          \n",
            "                                                                 conv4_block17_3_conv[0][0]       \n",
            "__________________________________________________________________________________________________\n",
            "conv4_block18_preact_bn (BatchN (None, 14, 14, 1024) 4096        conv4_block17_out[0][0]          \n",
            "__________________________________________________________________________________________________\n",
            "conv4_block18_preact_relu (Acti (None, 14, 14, 1024) 0           conv4_block18_preact_bn[0][0]    \n",
            "__________________________________________________________________________________________________\n",
            "conv4_block18_1_conv (Conv2D)   (None, 14, 14, 256)  262144      conv4_block18_preact_relu[0][0]  \n",
            "__________________________________________________________________________________________________\n",
            "conv4_block18_1_bn (BatchNormal (None, 14, 14, 256)  1024        conv4_block18_1_conv[0][0]       \n",
            "__________________________________________________________________________________________________\n",
            "conv4_block18_1_relu (Activatio (None, 14, 14, 256)  0           conv4_block18_1_bn[0][0]         \n",
            "__________________________________________________________________________________________________\n",
            "conv4_block18_2_pad (ZeroPaddin (None, 16, 16, 256)  0           conv4_block18_1_relu[0][0]       \n",
            "__________________________________________________________________________________________________\n",
            "conv4_block18_2_conv (Conv2D)   (None, 14, 14, 256)  589824      conv4_block18_2_pad[0][0]        \n",
            "__________________________________________________________________________________________________\n",
            "conv4_block18_2_bn (BatchNormal (None, 14, 14, 256)  1024        conv4_block18_2_conv[0][0]       \n",
            "__________________________________________________________________________________________________\n",
            "conv4_block18_2_relu (Activatio (None, 14, 14, 256)  0           conv4_block18_2_bn[0][0]         \n",
            "__________________________________________________________________________________________________\n",
            "conv4_block18_3_conv (Conv2D)   (None, 14, 14, 1024) 263168      conv4_block18_2_relu[0][0]       \n",
            "__________________________________________________________________________________________________\n",
            "conv4_block18_out (Add)         (None, 14, 14, 1024) 0           conv4_block17_out[0][0]          \n",
            "                                                                 conv4_block18_3_conv[0][0]       \n",
            "__________________________________________________________________________________________________\n",
            "conv4_block19_preact_bn (BatchN (None, 14, 14, 1024) 4096        conv4_block18_out[0][0]          \n",
            "__________________________________________________________________________________________________\n",
            "conv4_block19_preact_relu (Acti (None, 14, 14, 1024) 0           conv4_block19_preact_bn[0][0]    \n",
            "__________________________________________________________________________________________________\n",
            "conv4_block19_1_conv (Conv2D)   (None, 14, 14, 256)  262144      conv4_block19_preact_relu[0][0]  \n",
            "__________________________________________________________________________________________________\n",
            "conv4_block19_1_bn (BatchNormal (None, 14, 14, 256)  1024        conv4_block19_1_conv[0][0]       \n",
            "__________________________________________________________________________________________________\n",
            "conv4_block19_1_relu (Activatio (None, 14, 14, 256)  0           conv4_block19_1_bn[0][0]         \n",
            "__________________________________________________________________________________________________\n",
            "conv4_block19_2_pad (ZeroPaddin (None, 16, 16, 256)  0           conv4_block19_1_relu[0][0]       \n",
            "__________________________________________________________________________________________________\n",
            "conv4_block19_2_conv (Conv2D)   (None, 14, 14, 256)  589824      conv4_block19_2_pad[0][0]        \n",
            "__________________________________________________________________________________________________\n",
            "conv4_block19_2_bn (BatchNormal (None, 14, 14, 256)  1024        conv4_block19_2_conv[0][0]       \n",
            "__________________________________________________________________________________________________\n",
            "conv4_block19_2_relu (Activatio (None, 14, 14, 256)  0           conv4_block19_2_bn[0][0]         \n",
            "__________________________________________________________________________________________________\n",
            "conv4_block19_3_conv (Conv2D)   (None, 14, 14, 1024) 263168      conv4_block19_2_relu[0][0]       \n",
            "__________________________________________________________________________________________________\n",
            "conv4_block19_out (Add)         (None, 14, 14, 1024) 0           conv4_block18_out[0][0]          \n",
            "                                                                 conv4_block19_3_conv[0][0]       \n",
            "__________________________________________________________________________________________________\n",
            "conv4_block20_preact_bn (BatchN (None, 14, 14, 1024) 4096        conv4_block19_out[0][0]          \n",
            "__________________________________________________________________________________________________\n",
            "conv4_block20_preact_relu (Acti (None, 14, 14, 1024) 0           conv4_block20_preact_bn[0][0]    \n",
            "__________________________________________________________________________________________________\n",
            "conv4_block20_1_conv (Conv2D)   (None, 14, 14, 256)  262144      conv4_block20_preact_relu[0][0]  \n",
            "__________________________________________________________________________________________________\n",
            "conv4_block20_1_bn (BatchNormal (None, 14, 14, 256)  1024        conv4_block20_1_conv[0][0]       \n",
            "__________________________________________________________________________________________________\n",
            "conv4_block20_1_relu (Activatio (None, 14, 14, 256)  0           conv4_block20_1_bn[0][0]         \n",
            "__________________________________________________________________________________________________\n",
            "conv4_block20_2_pad (ZeroPaddin (None, 16, 16, 256)  0           conv4_block20_1_relu[0][0]       \n",
            "__________________________________________________________________________________________________\n",
            "conv4_block20_2_conv (Conv2D)   (None, 14, 14, 256)  589824      conv4_block20_2_pad[0][0]        \n",
            "__________________________________________________________________________________________________\n",
            "conv4_block20_2_bn (BatchNormal (None, 14, 14, 256)  1024        conv4_block20_2_conv[0][0]       \n",
            "__________________________________________________________________________________________________\n",
            "conv4_block20_2_relu (Activatio (None, 14, 14, 256)  0           conv4_block20_2_bn[0][0]         \n",
            "__________________________________________________________________________________________________\n",
            "conv4_block20_3_conv (Conv2D)   (None, 14, 14, 1024) 263168      conv4_block20_2_relu[0][0]       \n",
            "__________________________________________________________________________________________________\n",
            "conv4_block20_out (Add)         (None, 14, 14, 1024) 0           conv4_block19_out[0][0]          \n",
            "                                                                 conv4_block20_3_conv[0][0]       \n",
            "__________________________________________________________________________________________________\n",
            "conv4_block21_preact_bn (BatchN (None, 14, 14, 1024) 4096        conv4_block20_out[0][0]          \n",
            "__________________________________________________________________________________________________\n",
            "conv4_block21_preact_relu (Acti (None, 14, 14, 1024) 0           conv4_block21_preact_bn[0][0]    \n",
            "__________________________________________________________________________________________________\n",
            "conv4_block21_1_conv (Conv2D)   (None, 14, 14, 256)  262144      conv4_block21_preact_relu[0][0]  \n",
            "__________________________________________________________________________________________________\n",
            "conv4_block21_1_bn (BatchNormal (None, 14, 14, 256)  1024        conv4_block21_1_conv[0][0]       \n",
            "__________________________________________________________________________________________________\n",
            "conv4_block21_1_relu (Activatio (None, 14, 14, 256)  0           conv4_block21_1_bn[0][0]         \n",
            "__________________________________________________________________________________________________\n",
            "conv4_block21_2_pad (ZeroPaddin (None, 16, 16, 256)  0           conv4_block21_1_relu[0][0]       \n",
            "__________________________________________________________________________________________________\n",
            "conv4_block21_2_conv (Conv2D)   (None, 14, 14, 256)  589824      conv4_block21_2_pad[0][0]        \n",
            "__________________________________________________________________________________________________\n",
            "conv4_block21_2_bn (BatchNormal (None, 14, 14, 256)  1024        conv4_block21_2_conv[0][0]       \n",
            "__________________________________________________________________________________________________\n",
            "conv4_block21_2_relu (Activatio (None, 14, 14, 256)  0           conv4_block21_2_bn[0][0]         \n",
            "__________________________________________________________________________________________________\n",
            "conv4_block21_3_conv (Conv2D)   (None, 14, 14, 1024) 263168      conv4_block21_2_relu[0][0]       \n",
            "__________________________________________________________________________________________________\n",
            "conv4_block21_out (Add)         (None, 14, 14, 1024) 0           conv4_block20_out[0][0]          \n",
            "                                                                 conv4_block21_3_conv[0][0]       \n",
            "__________________________________________________________________________________________________\n",
            "conv4_block22_preact_bn (BatchN (None, 14, 14, 1024) 4096        conv4_block21_out[0][0]          \n",
            "__________________________________________________________________________________________________\n",
            "conv4_block22_preact_relu (Acti (None, 14, 14, 1024) 0           conv4_block22_preact_bn[0][0]    \n",
            "__________________________________________________________________________________________________\n",
            "conv4_block22_1_conv (Conv2D)   (None, 14, 14, 256)  262144      conv4_block22_preact_relu[0][0]  \n",
            "__________________________________________________________________________________________________\n",
            "conv4_block22_1_bn (BatchNormal (None, 14, 14, 256)  1024        conv4_block22_1_conv[0][0]       \n",
            "__________________________________________________________________________________________________\n",
            "conv4_block22_1_relu (Activatio (None, 14, 14, 256)  0           conv4_block22_1_bn[0][0]         \n",
            "__________________________________________________________________________________________________\n",
            "conv4_block22_2_pad (ZeroPaddin (None, 16, 16, 256)  0           conv4_block22_1_relu[0][0]       \n",
            "__________________________________________________________________________________________________\n",
            "conv4_block22_2_conv (Conv2D)   (None, 14, 14, 256)  589824      conv4_block22_2_pad[0][0]        \n",
            "__________________________________________________________________________________________________\n",
            "conv4_block22_2_bn (BatchNormal (None, 14, 14, 256)  1024        conv4_block22_2_conv[0][0]       \n",
            "__________________________________________________________________________________________________\n",
            "conv4_block22_2_relu (Activatio (None, 14, 14, 256)  0           conv4_block22_2_bn[0][0]         \n",
            "__________________________________________________________________________________________________\n",
            "conv4_block22_3_conv (Conv2D)   (None, 14, 14, 1024) 263168      conv4_block22_2_relu[0][0]       \n",
            "__________________________________________________________________________________________________\n",
            "conv4_block22_out (Add)         (None, 14, 14, 1024) 0           conv4_block21_out[0][0]          \n",
            "                                                                 conv4_block22_3_conv[0][0]       \n",
            "__________________________________________________________________________________________________\n",
            "conv4_block23_preact_bn (BatchN (None, 14, 14, 1024) 4096        conv4_block22_out[0][0]          \n",
            "__________________________________________________________________________________________________\n",
            "conv4_block23_preact_relu (Acti (None, 14, 14, 1024) 0           conv4_block23_preact_bn[0][0]    \n",
            "__________________________________________________________________________________________________\n",
            "conv4_block23_1_conv (Conv2D)   (None, 14, 14, 256)  262144      conv4_block23_preact_relu[0][0]  \n",
            "__________________________________________________________________________________________________\n",
            "conv4_block23_1_bn (BatchNormal (None, 14, 14, 256)  1024        conv4_block23_1_conv[0][0]       \n",
            "__________________________________________________________________________________________________\n",
            "conv4_block23_1_relu (Activatio (None, 14, 14, 256)  0           conv4_block23_1_bn[0][0]         \n",
            "__________________________________________________________________________________________________\n",
            "conv4_block23_2_pad (ZeroPaddin (None, 16, 16, 256)  0           conv4_block23_1_relu[0][0]       \n",
            "__________________________________________________________________________________________________\n",
            "conv4_block23_2_conv (Conv2D)   (None, 7, 7, 256)    589824      conv4_block23_2_pad[0][0]        \n",
            "__________________________________________________________________________________________________\n",
            "conv4_block23_2_bn (BatchNormal (None, 7, 7, 256)    1024        conv4_block23_2_conv[0][0]       \n",
            "__________________________________________________________________________________________________\n",
            "conv4_block23_2_relu (Activatio (None, 7, 7, 256)    0           conv4_block23_2_bn[0][0]         \n",
            "__________________________________________________________________________________________________\n",
            "max_pooling2d_5 (MaxPooling2D)  (None, 7, 7, 1024)   0           conv4_block22_out[0][0]          \n",
            "__________________________________________________________________________________________________\n",
            "conv4_block23_3_conv (Conv2D)   (None, 7, 7, 1024)   263168      conv4_block23_2_relu[0][0]       \n",
            "__________________________________________________________________________________________________\n",
            "conv4_block23_out (Add)         (None, 7, 7, 1024)   0           max_pooling2d_5[0][0]            \n",
            "                                                                 conv4_block23_3_conv[0][0]       \n",
            "__________________________________________________________________________________________________\n",
            "conv5_block1_preact_bn (BatchNo (None, 7, 7, 1024)   4096        conv4_block23_out[0][0]          \n",
            "__________________________________________________________________________________________________\n",
            "conv5_block1_preact_relu (Activ (None, 7, 7, 1024)   0           conv5_block1_preact_bn[0][0]     \n",
            "__________________________________________________________________________________________________\n",
            "conv5_block1_1_conv (Conv2D)    (None, 7, 7, 512)    524288      conv5_block1_preact_relu[0][0]   \n",
            "__________________________________________________________________________________________________\n",
            "conv5_block1_1_bn (BatchNormali (None, 7, 7, 512)    2048        conv5_block1_1_conv[0][0]        \n",
            "__________________________________________________________________________________________________\n",
            "conv5_block1_1_relu (Activation (None, 7, 7, 512)    0           conv5_block1_1_bn[0][0]          \n",
            "__________________________________________________________________________________________________\n",
            "conv5_block1_2_pad (ZeroPadding (None, 9, 9, 512)    0           conv5_block1_1_relu[0][0]        \n",
            "__________________________________________________________________________________________________\n",
            "conv5_block1_2_conv (Conv2D)    (None, 7, 7, 512)    2359296     conv5_block1_2_pad[0][0]         \n",
            "__________________________________________________________________________________________________\n",
            "conv5_block1_2_bn (BatchNormali (None, 7, 7, 512)    2048        conv5_block1_2_conv[0][0]        \n",
            "__________________________________________________________________________________________________\n",
            "conv5_block1_2_relu (Activation (None, 7, 7, 512)    0           conv5_block1_2_bn[0][0]          \n",
            "__________________________________________________________________________________________________\n",
            "conv5_block1_0_conv (Conv2D)    (None, 7, 7, 2048)   2099200     conv5_block1_preact_relu[0][0]   \n",
            "__________________________________________________________________________________________________\n",
            "conv5_block1_3_conv (Conv2D)    (None, 7, 7, 2048)   1050624     conv5_block1_2_relu[0][0]        \n",
            "__________________________________________________________________________________________________\n",
            "conv5_block1_out (Add)          (None, 7, 7, 2048)   0           conv5_block1_0_conv[0][0]        \n",
            "                                                                 conv5_block1_3_conv[0][0]        \n",
            "__________________________________________________________________________________________________\n",
            "conv5_block2_preact_bn (BatchNo (None, 7, 7, 2048)   8192        conv5_block1_out[0][0]           \n",
            "__________________________________________________________________________________________________\n",
            "conv5_block2_preact_relu (Activ (None, 7, 7, 2048)   0           conv5_block2_preact_bn[0][0]     \n",
            "__________________________________________________________________________________________________\n",
            "conv5_block2_1_conv (Conv2D)    (None, 7, 7, 512)    1048576     conv5_block2_preact_relu[0][0]   \n",
            "__________________________________________________________________________________________________\n",
            "conv5_block2_1_bn (BatchNormali (None, 7, 7, 512)    2048        conv5_block2_1_conv[0][0]        \n",
            "__________________________________________________________________________________________________\n",
            "conv5_block2_1_relu (Activation (None, 7, 7, 512)    0           conv5_block2_1_bn[0][0]          \n",
            "__________________________________________________________________________________________________\n",
            "conv5_block2_2_pad (ZeroPadding (None, 9, 9, 512)    0           conv5_block2_1_relu[0][0]        \n",
            "__________________________________________________________________________________________________\n",
            "conv5_block2_2_conv (Conv2D)    (None, 7, 7, 512)    2359296     conv5_block2_2_pad[0][0]         \n",
            "__________________________________________________________________________________________________\n",
            "conv5_block2_2_bn (BatchNormali (None, 7, 7, 512)    2048        conv5_block2_2_conv[0][0]        \n",
            "__________________________________________________________________________________________________\n",
            "conv5_block2_2_relu (Activation (None, 7, 7, 512)    0           conv5_block2_2_bn[0][0]          \n",
            "__________________________________________________________________________________________________\n",
            "conv5_block2_3_conv (Conv2D)    (None, 7, 7, 2048)   1050624     conv5_block2_2_relu[0][0]        \n",
            "__________________________________________________________________________________________________\n",
            "conv5_block2_out (Add)          (None, 7, 7, 2048)   0           conv5_block1_out[0][0]           \n",
            "                                                                 conv5_block2_3_conv[0][0]        \n",
            "__________________________________________________________________________________________________\n",
            "conv5_block3_preact_bn (BatchNo (None, 7, 7, 2048)   8192        conv5_block2_out[0][0]           \n",
            "__________________________________________________________________________________________________\n",
            "conv5_block3_preact_relu (Activ (None, 7, 7, 2048)   0           conv5_block3_preact_bn[0][0]     \n",
            "__________________________________________________________________________________________________\n",
            "conv5_block3_1_conv (Conv2D)    (None, 7, 7, 512)    1048576     conv5_block3_preact_relu[0][0]   \n",
            "__________________________________________________________________________________________________\n",
            "conv5_block3_1_bn (BatchNormali (None, 7, 7, 512)    2048        conv5_block3_1_conv[0][0]        \n",
            "__________________________________________________________________________________________________\n",
            "conv5_block3_1_relu (Activation (None, 7, 7, 512)    0           conv5_block3_1_bn[0][0]          \n",
            "__________________________________________________________________________________________________\n",
            "conv5_block3_2_pad (ZeroPadding (None, 9, 9, 512)    0           conv5_block3_1_relu[0][0]        \n",
            "__________________________________________________________________________________________________\n",
            "conv5_block3_2_conv (Conv2D)    (None, 7, 7, 512)    2359296     conv5_block3_2_pad[0][0]         \n",
            "__________________________________________________________________________________________________\n",
            "conv5_block3_2_bn (BatchNormali (None, 7, 7, 512)    2048        conv5_block3_2_conv[0][0]        \n",
            "__________________________________________________________________________________________________\n",
            "conv5_block3_2_relu (Activation (None, 7, 7, 512)    0           conv5_block3_2_bn[0][0]          \n",
            "__________________________________________________________________________________________________\n",
            "conv5_block3_3_conv (Conv2D)    (None, 7, 7, 2048)   1050624     conv5_block3_2_relu[0][0]        \n",
            "__________________________________________________________________________________________________\n",
            "conv5_block3_out (Add)          (None, 7, 7, 2048)   0           conv5_block2_out[0][0]           \n",
            "                                                                 conv5_block3_3_conv[0][0]        \n",
            "__________________________________________________________________________________________________\n",
            "post_bn (BatchNormalization)    (None, 7, 7, 2048)   8192        conv5_block3_out[0][0]           \n",
            "__________________________________________________________________________________________________\n",
            "post_relu (Activation)          (None, 7, 7, 2048)   0           post_bn[0][0]                    \n",
            "__________________________________________________________________________________________________\n",
            "flatten (Flatten)               (None, 100352)       0           post_relu[0][0]                  \n",
            "__________________________________________________________________________________________________\n",
            "dense_2 (Dense)                 (None, 2)            200706      flatten[0][0]                    \n",
            "==================================================================================================\n",
            "Total params: 42,827,266\n",
            "Trainable params: 200,706\n",
            "Non-trainable params: 42,626,560\n",
            "__________________________________________________________________________________________________\n",
…
        "model_trained, history = train_model(model_trained, trainX, trainY, num_epochs, batch_size)"
      ],
      "execution_count": 33,
      "outputs": [
        {
          "output_type": "stream",
          "text": [
            "Model: \"model_3\"\n",
            "__________________________________________________________________________________________________\n",
            "Layer (type)                    Output Shape         Param #     Connected to                     \n",
            "==================================================================================================\n",
            "input_4 (InputLayer)            [(None, 224, 224, 3) 0                                            \n",
            "__________________________________________________________________________________________________\n",
            "zero_padding2d_2 (ZeroPadding2D (None, 230, 230, 3)  0           input_4[0][0]                    \n",
            "__________________________________________________________________________________________________\n",
            "conv1/conv (Conv2D)             (None, 112, 112, 64) 9408        zero_padding2d_2[0][0]           \n",
            "__________________________________________________________________________________________________\n",
            "conv1/bn (BatchNormalization)   (None, 112, 112, 64) 256         conv1/conv[0][0]                 \n",
            "__________________________________________________________________________________________________\n",
            "conv1/relu (Activation)         (None, 112, 112, 64) 0           conv1/bn[0][0]                   \n",
            "__________________________________________________________________________________________________\n",
            "zero_padding2d_3 (ZeroPadding2D (None, 114, 114, 64) 0           conv1/relu[0][0]                 \n",
            "__________________________________________________________________________________________________\n",
            "pool1 (MaxPooling2D)            (None, 56, 56, 64)   0           zero_padding2d_3[0][0]           \n",
            "__________________________________________________________________________________________________\n",
            "conv2_block1_0_bn (BatchNormali (None, 56, 56, 64)   256         pool1[0][0]                      \n",
            "__________________________________________________________________________________________________\n",
            "conv2_block1_0_relu (Activation (None, 56, 56, 64)   0           conv2_block1_0_bn[0][0]          \n",
            "__________________________________________________________________________________________________\n",
            "conv2_block1_1_conv (Conv2D)    (None, 56, 56, 128)  8192        conv2_block1_0_relu[0][0]        \n",
            "__________________________________________________________________________________________________\n",
            "conv2_block1_1_bn (BatchNormali (None, 56, 56, 128)  512         conv2_block1_1_conv[0][0]        \n",
            "__________________________________________________________________________________________________\n",
            "conv2_block1_1_relu (Activation (None, 56, 56, 128)  0           conv2_block1_1_bn[0][0]          \n",
            "__________________________________________________________________________________________________\n",
            "conv2_block1_2_conv (Conv2D)    (None, 56, 56, 32)   36864       conv2_block1_1_relu[0][0]        \n",
            "__________________________________________________________________________________________________\n",
            "conv2_block1_concat (Concatenat (None, 56, 56, 96)   0           pool1[0][0]                      \n",
            "                                                                 conv2_block1_2_conv[0][0]        \n",
            "__________________________________________________________________________________________________\n",
            "conv2_block2_0_bn (BatchNormali (None, 56, 56, 96)   384         conv2_block1_concat[0][0]        \n",
            "__________________________________________________________________________________________________\n",
            "conv2_block2_0_relu (Activation (None, 56, 56, 96)   0           conv2_block2_0_bn[0][0]          \n",
            "__________________________________________________________________________________________________\n",
            "conv2_block2_1_conv (Conv2D)    (None, 56, 56, 128)  12288       conv2_block2_0_relu[0][0]        \n",
            "__________________________________________________________________________________________________\n",
            "conv2_block2_1_bn (BatchNormali (None, 56, 56, 128)  512         conv2_block2_1_conv[0][0]        \n",
            "__________________________________________________________________________________________________\n",
            "conv2_block2_1_relu (Activation (None, 56, 56, 128)  0           conv2_block2_1_bn[0][0]          \n",
            "__________________________________________________________________________________________________\n",
            "conv2_block2_2_conv (Conv2D)    (None, 56, 56, 32)   36864       conv2_block2_1_relu[0][0]        \n",
            "__________________________________________________________________________________________________\n",
            "conv2_block2_concat (Concatenat (None, 56, 56, 128)  0           conv2_block1_concat[0][0]        \n",
            "                                                                 conv2_block2_2_conv[0][0]        \n",
            "__________________________________________________________________________________________________\n",
            "conv2_block3_0_bn (BatchNormali (None, 56, 56, 128)  512         conv2_block2_concat[0][0]        \n",
            "__________________________________________________________________________________________________\n",
            "conv2_block3_0_relu (Activation (None, 56, 56, 128)  0           conv2_block3_0_bn[0][0]          \n",
            "__________________________________________________________________________________________________\n",
            "conv2_block3_1_conv (Conv2D)    (None, 56, 56, 128)  16384       conv2_block3_0_relu[0][0]        \n",
            "__________________________________________________________________________________________________\n",
            "conv2_block3_1_bn (BatchNormali (None, 56, 56, 128)  512         conv2_block3_1_conv[0][0]        \n",
            "__________________________________________________________________________________________________\n",
            "conv2_block3_1_relu (Activation (None, 56, 56, 128)  0           conv2_block3_1_bn[0][0]          \n",
            "__________________________________________________________________________________________________\n",
            "conv2_block3_2_conv (Conv2D)    (None, 56, 56, 32)   36864       conv2_block3_1_relu[0][0]        \n",
            "__________________________________________________________________________________________________\n",
            "conv2_block3_concat (Concatenat (None, 56, 56, 160)  0           conv2_block2_concat[0][0]        \n",
            "                                                                 conv2_block3_2_conv[0][0]        \n",
            "__________________________________________________________________________________________________\n",
            "conv2_block4_0_bn (BatchNormali (None, 56, 56, 160)  640         conv2_block3_concat[0][0]        \n",
            "__________________________________________________________________________________________________\n",
            "conv2_block4_0_relu (Activation (None, 56, 56, 160)  0           conv2_block4_0_bn[0][0]          \n",
            "__________________________________________________________________________________________________\n",
            "conv2_block4_1_conv (Conv2D)    (None, 56, 56, 128)  20480       conv2_block4_0_relu[0][0]        \n",
            "__________________________________________________________________________________________________\n",
            "conv2_block4_1_bn (BatchNormali (None, 56, 56, 128)  512         conv2_block4_1_conv[0][0]        \n",
            "__________________________________________________________________________________________________\n",
            "conv2_block4_1_relu (Activation (None, 56, 56, 128)  0           conv2_block4_1_bn[0][0]          \n",
            "__________________________________________________________________________________________________\n",
            "conv2_block4_2_conv (Conv2D)    (None, 56, 56, 32)   36864       conv2_block4_1_relu[0][0]        \n",
            "__________________________________________________________________________________________________\n",
            "conv2_block4_concat (Concatenat (None, 56, 56, 192)  0           conv2_block3_concat[0][0]        \n",
            "                                                                 conv2_block4_2_conv[0][0]        \n",
            "__________________________________________________________________________________________________\n",
            "conv2_block5_0_bn (BatchNormali (None, 56, 56, 192)  768         conv2_block4_concat[0][0]        \n",
            "__________________________________________________________________________________________________\n",
            "conv2_block5_0_relu (Activation (None, 56, 56, 192)  0           conv2_block5_0_bn[0][0]          \n",
            "__________________________________________________________________________________________________\n",
            "conv2_block5_1_conv (Conv2D)    (None, 56, 56, 128)  24576       conv2_block5_0_relu[0][0]        \n",
            "__________________________________________________________________________________________________\n",
            "conv2_block5_1_bn (BatchNormali (None, 56, 56, 128)  512         conv2_block5_1_conv[0][0]        \n",
            "__________________________________________________________________________________________________\n",
            "conv2_block5_1_relu (Activation (None, 56, 56, 128)  0           conv2_block5_1_bn[0][0]          \n",
            "__________________________________________________________________________________________________\n",
            "conv2_block5_2_conv (Conv2D)    (None, 56, 56, 32)   36864       conv2_block5_1_relu[0][0]        \n",
            "__________________________________________________________________________________________________\n",
            "conv2_block5_concat (Concatenat (None, 56, 56, 224)  0           conv2_block4_concat[0][0]        \n",
            "                                                                 conv2_block5_2_conv[0][0]        \n",
            "__________________________________________________________________________________________________\n",
            "conv2_block6_0_bn (BatchNormali (None, 56, 56, 224)  896         conv2_block5_concat[0][0]        \n",
            "__________________________________________________________________________________________________\n",
            "conv2_block6_0_relu (Activation (None, 56, 56, 224)  0           conv2_block6_0_bn[0][0]          \n",
            "__________________________________________________________________________________________________\n",
            "conv2_block6_1_conv (Conv2D)    (None, 56, 56, 128)  28672       conv2_block6_0_relu[0][0]        \n",
            "__________________________________________________________________________________________________\n",
            "conv2_block6_1_bn (BatchNormali (None, 56, 56, 128)  512         conv2_block6_1_conv[0][0]        \n",
            "__________________________________________________________________________________________________\n",
            "conv2_block6_1_relu (Activation (None, 56, 56, 128)  0           conv2_block6_1_bn[0][0]          \n",
            "__________________________________________________________________________________________________\n",
            "conv2_block6_2_conv (Conv2D)    (None, 56, 56, 32)   36864       conv2_block6_1_relu[0][0]        \n",
            "__________________________________________________________________________________________________\n",
            "conv2_block6_concat (Concatenat (None, 56, 56, 256)  0           conv2_block5_concat[0][0]        \n",
            "                                                                 conv2_block6_2_conv[0][0]        \n",
            "__________________________________________________________________________________________________\n",
            "pool2_bn (BatchNormalization)   (None, 56, 56, 256)  1024        conv2_block6_concat[0][0]        \n",
            "__________________________________________________________________________________________________\n",
            "pool2_relu (Activation)         (None, 56, 56, 256)  0           pool2_bn[0][0]                   \n",
            "__________________________________________________________________________________________________\n",
            "pool2_conv (Conv2D)             (None, 56, 56, 128)  32768       pool2_relu[0][0]                 \n",
            "__________________________________________________________________________________________________\n",
            "pool2_pool (AveragePooling2D)   (None, 28, 28, 128)  0           pool2_conv[0][0]                 \n",
            "__________________________________________________________________________________________________\n",
…
            "conv4_block14_1_conv (Conv2D)   (None, 14, 14, 128)  86016       conv4_block14_0_relu[0][0]       \n",
            "__________________________________________________________________________________________________\n",
            "conv4_block14_1_bn (BatchNormal (None, 14, 14, 128)  512         conv4_block14_1_conv[0][0]       \n",
            "__________________________________________________________________________________________________\n",
            "conv4_block14_1_relu (Activatio (None, 14, 14, 128)  0           conv4_block14_1_bn[0][0]         \n",
            "__________________________________________________________________________________________________\n",
            "conv4_block14_2_conv (Conv2D)   (None, 14, 14, 32)   36864       conv4_block14_1_relu[0][0]       \n",
            "__________________________________________________________________________________________________\n",
            "conv4_block14_concat (Concatena (None, 14, 14, 704)  0           conv4_block13_concat[0][0]       \n",
            "                                                                 conv4_block14_2_conv[0][0]       \n",
            "__________________________________________________________________________________________________\n",
            "conv4_block15_0_bn (BatchNormal (None, 14, 14, 704)  2816        conv4_block14_concat[0][0]       \n",
            "__________________________________________________________________________________________________\n",
            "conv4_block15_0_relu (Activatio (None, 14, 14, 704)  0           conv4_block15_0_bn[0][0]         \n",
            "__________________________________________________________________________________________________\n",
            "conv4_block15_1_conv (Conv2D)   (None, 14, 14, 128)  90112       conv4_block15_0_relu[0][0]       \n",
            "__________________________________________________________________________________________________\n",
            "conv4_block15_1_bn (BatchNormal (None, 14, 14, 128)  512         conv4_block15_1_conv[0][0]       \n",
            "__________________________________________________________________________________________________\n",
            "conv4_block15_1_relu (Activatio (None, 14, 14, 128)  0           conv4_block15_1_bn[0][0]         \n",
            "__________________________________________________________________________________________________\n",
            "conv4_block15_2_conv (Conv2D)   (None, 14, 14, 32)   36864       conv4_block15_1_relu[0][0]       \n",
            "__________________________________________________________________________________________________\n",
            "conv4_block15_concat (Concatena (None, 14, 14, 736)  0           conv4_block14_concat[0][0]       \n",
            "                                                                 conv4_block15_2_conv[0][0]       \n",
            "__________________________________________________________________________________________________\n",
            "conv4_block16_0_bn (BatchNormal (None, 14, 14, 736)  2944        conv4_block15_concat[0][0]       \n",
            "__________________________________________________________________________________________________\n",
            "conv4_block16_0_relu (Activatio (None, 14, 14, 736)  0           conv4_block16_0_bn[0][0]         \n",
            "__________________________________________________________________________________________________\n",
            "conv4_block16_1_conv (Conv2D)   (None, 14, 14, 128)  94208       conv4_block16_0_relu[0][0]       \n",
            "__________________________________________________________________________________________________\n",
            "conv4_block16_1_bn (BatchNormal (None, 14, 14, 128)  512         conv4_block16_1_conv[0][0]       \n",
            "__________________________________________________________________________________________________\n",
            "conv4_block16_1_relu (Activatio (None, 14, 14, 128)  0           conv4_block16_1_bn[0][0]         \n",
            "__________________________________________________________________________________________________\n",
            "conv4_block16_2_conv (Conv2D)   (None, 14, 14, 32)   36864       conv4_block16_1_relu[0][0]       \n",
            "__________________________________________________________________________________________________\n",
            "conv4_block16_concat (Concatena (None, 14, 14, 768)  0           conv4_block15_concat[0][0]       \n",
            "                                                                 conv4_block16_2_conv[0][0]       \n",
            "__________________________________________________________________________________________________\n",
            "conv4_block17_0_bn (BatchNormal (None, 14, 14, 768)  3072        conv4_block16_concat[0][0]       \n",
            "__________________________________________________________________________________________________\n",
            "conv4_block17_0_relu (Activatio (None, 14, 14, 768)  0           conv4_block17_0_bn[0][0]         \n",
            "__________________________________________________________________________________________________\n",
            "conv4_block17_1_conv (Conv2D)   (None, 14, 14, 128)  98304       conv4_block17_0_relu[0][0]       \n",
            "__________________________________________________________________________________________________\n",
            "conv4_block17_1_bn (BatchNormal (None, 14, 14, 128)  512         conv4_block17_1_conv[0][0]       \n",
            "__________________________________________________________________________________________________\n",
            "conv4_block17_1_relu (Activatio (None, 14, 14, 128)  0           conv4_block17_1_bn[0][0]         \n",
            "__________________________________________________________________________________________________\n",
            "conv4_block17_2_conv (Conv2D)   (None, 14, 14, 32)   36864       conv4_block17_1_relu[0][0]       \n",
            "__________________________________________________________________________________________________\n",
            "conv4_block17_concat (Concatena (None, 14, 14, 800)  0           conv4_block16_concat[0][0]       \n",
            "                                                                 conv4_block17_2_conv[0][0]       \n",
            "__________________________________________________________________________________________________\n",
            "conv4_block18_0_bn (BatchNormal (None, 14, 14, 800)  3200        conv4_block17_concat[0][0]       \n",
            "__________________________________________________________________________________________________\n",
            "conv4_block18_0_relu (Activatio (None, 14, 14, 800)  0           conv4_block18_0_bn[0][0]         \n",
            "__________________________________________________________________________________________________\n",
            "conv4_block18_1_conv (Conv2D)   (None, 14, 14, 128)  102400      conv4_block18_0_relu[0][0]       \n",
            "__________________________________________________________________________________________________\n",
            "conv4_block18_1_bn (BatchNormal (None, 14, 14, 128)  512         conv4_block18_1_conv[0][0]       \n",
            "__________________________________________________________________________________________________\n",
            "conv4_block18_1_relu (Activatio (None, 14, 14, 128)  0           conv4_block18_1_bn[0][0]         \n",
            "__________________________________________________________________________________________________\n",
            "conv4_block18_2_conv (Conv2D)   (None, 14, 14, 32)   36864       conv4_block18_1_relu[0][0]       \n",
            "__________________________________________________________________________________________________\n",
            "conv4_block18_concat (Concatena (None, 14, 14, 832)  0           conv4_block17_concat[0][0]       \n",
            "                                                                 conv4_block18_2_conv[0][0]       \n",
            "__________________________________________________________________________________________________\n",
            "conv4_block19_0_bn (BatchNormal (None, 14, 14, 832)  3328        conv4_block18_concat[0][0]       \n",
            "__________________________________________________________________________________________________\n",
            "conv4_block19_0_relu (Activatio (None, 14, 14, 832)  0           conv4_block19_0_bn[0][0]         \n",
            "__________________________________________________________________________________________________\n",
            "conv4_block19_1_conv (Conv2D)   (None, 14, 14, 128)  106496      conv4_block19_0_relu[0][0]       \n",
            "__________________________________________________________________________________________________\n",
            "conv4_block19_1_bn (BatchNormal (None, 14, 14, 128)  512         conv4_block19_1_conv[0][0]       \n",
            "__________________________________________________________________________________________________\n",
            "conv4_block19_1_relu (Activatio (None, 14, 14, 128)  0           conv4_block19_1_bn[0][0]         \n",
            "__________________________________________________________________________________________________\n",
            "conv4_block19_2_conv (Conv2D)   (None, 14, 14, 32)   36864       conv4_block19_1_relu[0][0]       \n",
            "__________________________________________________________________________________________________\n",
            "conv4_block19_concat (Concatena (None, 14, 14, 864)  0           conv4_block18_concat[0][0]       \n",
            "                                                                 conv4_block19_2_conv[0][0]       \n",
            "__________________________________________________________________________________________________\n",
            "conv4_block20_0_bn (BatchNormal (None, 14, 14, 864)  3456        conv4_block19_concat[0][0]       \n",
            "__________________________________________________________________________________________________\n",
            "conv4_block20_0_relu (Activatio (None, 14, 14, 864)  0           conv4_block20_0_bn[0][0]         \n",
            "__________________________________________________________________________________________________\n",
            "conv4_block20_1_conv (Conv2D)   (None, 14, 14, 128)  110592      conv4_block20_0_relu[0][0]       \n",
            "__________________________________________________________________________________________________\n",
            "conv4_block20_1_bn (BatchNormal (None, 14, 14, 128)  512         conv4_block20_1_conv[0][0]       \n",
            "__________________________________________________________________________________________________\n",
            "conv4_block20_1_relu (Activatio (None, 14, 14, 128)  0           conv4_block20_1_bn[0][0]         \n",
            "__________________________________________________________________________________________________\n",
            "conv4_block20_2_conv (Conv2D)   (None, 14, 14, 32)   36864       conv4_block20_1_relu[0][0]       \n",
            "__________________________________________________________________________________________________\n",
            "conv4_block20_concat (Concatena (None, 14, 14, 896)  0           conv4_block19_concat[0][0]       \n",
            "                                                                 conv4_block20_2_conv[0][0]       \n",
            "__________________________________________________________________________________________________\n",
            "conv4_block21_0_bn (BatchNormal (None, 14, 14, 896)  3584        conv4_block20_concat[0][0]       \n",
            "__________________________________________________________________________________________________\n",
            "conv4_block21_0_relu (Activatio (None, 14, 14, 896)  0           conv4_block21_0_bn[0][0]         \n",
            "__________________________________________________________________________________________________\n",
            "conv4_block21_1_conv (Conv2D)   (None, 14, 14, 128)  114688      conv4_block21_0_relu[0][0]       \n",
            "__________________________________________________________________________________________________\n",
            "conv4_block21_1_bn (BatchNormal (None, 14, 14, 128)  512         conv4_block21_1_conv[0][0]       \n",
            "__________________________________________________________________________________________________\n",
            "conv4_block21_1_relu (Activatio (None, 14, 14, 128)  0           conv4_block21_1_bn[0][0]         \n",
            "__________________________________________________________________________________________________\n",
            "conv4_block21_2_conv (Conv2D)   (None, 14, 14, 32)   36864       conv4_block21_1_relu[0][0]       \n",
            "__________________________________________________________________________________________________\n",
            "conv4_block21_concat (Concatena (None, 14, 14, 928)  0           conv4_block20_concat[0][0]       \n",
            "                                                                 conv4_block21_2_conv[0][0]       \n",
            "__________________________________________________________________________________________________\n",
            "conv4_block22_0_bn (BatchNormal (None, 14, 14, 928)  3712        conv4_block21_concat[0][0]       \n",
            "__________________________________________________________________________________________________\n",
            "conv4_block22_0_relu (Activatio (None, 14, 14, 928)  0           conv4_block22_0_bn[0][0]         \n",
            "__________________________________________________________________________________________________\n",
            "conv4_block22_1_conv (Conv2D)   (None, 14, 14, 128)  118784      conv4_block22_0_relu[0][0]       \n",
            "__________________________________________________________________________________________________\n",
            "conv4_block22_1_bn (BatchNormal (None, 14, 14, 128)  512         conv4_block22_1_conv[0][0]       \n",
            "__________________________________________________________________________________________________\n",
            "conv4_block22_1_relu (Activatio (None, 14, 14, 128)  0           conv4_block22_1_bn[0][0]         \n",
            "__________________________________________________________________________________________________\n",
            "conv4_block22_2_conv (Conv2D)   (None, 14, 14, 32)   36864       conv4_block22_1_relu[0][0]       \n",
            "__________________________________________________________________________________________________\n",
            "conv4_block22_concat (Concatena (None, 14, 14, 960)  0           conv4_block21_concat[0][0]       \n",
            "                                                                 conv4_block22_2_conv[0][0]       \n",
            "__________________________________________________________________________________________________\n",
            "conv4_block23_0_bn (BatchNormal (None, 14, 14, 960)  3840        conv4_block22_concat[0][0]       \n",
            "__________________________________________________________________________________________________\n",
            "conv4_block23_0_relu (Activatio (None, 14, 14, 960)  0           conv4_block23_0_bn[0][0]         \n",
            "__________________________________________________________________________________________________\n",
            "conv4_block23_1_conv (Conv2D)   (None, 14, 14, 128)  122880      conv4_block23_0_relu[0][0]       \n",
            "__________________________________________________________________________________________________\n",
            "conv4_block23_1_bn (BatchNormal (None, 14, 14, 128)  512         conv4_block23_1_conv[0][0]       \n",
            "__________________________________________________________________________________________________\n",
            "conv4_block23_1_relu (Activatio (None, 14, 14, 128)  0           conv4_block23_1_bn[0][0]         \n",
            "__________________________________________________________________________________________________\n",
            "conv4_block23_2_conv (Conv2D)   (None, 14, 14, 32)   36864       conv4_block23_1_relu[0][0]       \n",
            "__________________________________________________________________________________________________\n",
            "conv4_block23_concat (Concatena (None, 14, 14, 992)  0           conv4_block22_concat[0][0]       \n",
            "                                                                 conv4_block23_2_conv[0][0]       \n",
            "__________________________________________________________________________________________________\n",
            "conv4_block24_0_bn (BatchNormal (None, 14, 14, 992)  3968        conv4_block23_concat[0][0]       \n",
            "__________________________________________________________________________________________________\n",
            "conv4_block24_0_relu (Activatio (None, 14, 14, 992)  0           conv4_block24_0_bn[0][0]         \n",
            "__________________________________________________________________________________________________\n",
            "conv4_block24_1_conv (Conv2D)   (None, 14, 14, 128)  126976      conv4_block24_0_relu[0][0]       \n",
            "__________________________________________________________________________________________________\n",
            "conv4_block24_1_bn (BatchNormal (None, 14, 14, 128)  512         conv4_block24_1_conv[0][0]       \n",
            "__________________________________________________________________________________________________\n",
            "conv4_block24_1_relu (Activatio (None, 14, 14, 128)  0           conv4_block24_1_bn[0][0]         \n",
            "__________________________________________________________________________________________________\n",
            "conv4_block24_2_conv (Conv2D)   (None, 14, 14, 32)   36864       conv4_block24_1_relu[0][0]       \n",
            "__________________________________________________________________________________________________\n",
            "conv4_block24_concat (Concatena (None, 14, 14, 1024) 0           conv4_block23_concat[0][0]       \n",
            "                                                                 conv4_block24_2_conv[0][0]       \n",
            "__________________________________________________________________________________________________\n",
            "pool4_bn (BatchNormalization)   (None, 14, 14, 1024) 4096        conv4_block24_concat[0][0]       \n",
            "__________________________________________________________________________________________________\n",
            "pool4_relu (Activation)         (None, 14, 14, 1024) 0           pool4_bn[0][0]                   \n",
            "__________________________________________________________________________________________________\n",
            "pool4_conv (Conv2D)             (None, 14, 14, 512)  524288      pool4_relu[0][0]                 \n",
            "__________________________________________________________________________________________________\n",
            "pool4_pool (AveragePooling2D)   (None, 7, 7, 512)    0           pool4_conv[0][0]                 \n",
            "__________________________________________________________________________________________________\n",
            "conv5_block1_0_bn (BatchNormali (None, 7, 7, 512)    2048        pool4_pool[0][0]                 \n",
            "__________________________________________________________________________________________________\n",
            "conv5_block1_0_relu (Activation (None, 7, 7, 512)    0           conv5_block1_0_bn[0][0]          \n",
            "__________________________________________________________________________________________________\n",
            "conv5_block1_1_conv (Conv2D)    (None, 7, 7, 128)    65536       conv5_block1_0_relu[0][0]        \n",
            "__________________________________________________________________________________________________\n",
            "conv5_block1_1_bn (BatchNormali (None, 7, 7, 128)    512         conv5_block1_1_conv[0][0]        \n",
            "__________________________________________________________________________________________________\n",
            "conv5_block1_1_relu (Activation (None, 7, 7, 128)    0           conv5_block1_1_bn[0][0]          \n",
            "__________________________________________________________________________________________________\n",
            "conv5_block1_2_conv (Conv2D)    (None, 7, 7, 32)     36864       conv5_block1_1_relu[0][0]        \n",
            "__________________________________________________________________________________________________\n",
            "conv5_block1_concat (Concatenat (None, 7, 7, 544)    0           pool4_pool[0][0]                 \n",
            "                                                                 conv5_block1_2_conv[0][0]        \n",
            "__________________________________________________________________________________________________\n",
            "conv5_block2_0_bn (BatchNormali (None, 7, 7, 544)    2176        conv5_block1_concat[0][0]        \n",
            "__________________________________________________________________________________________________\n",
            "conv5_block2_0_relu (Activation (None, 7, 7, 544)    0           conv5_block2_0_bn[0][0]          \n",
            "__________________________________________________________________________________________________\n",
            "conv5_block2_1_conv (Conv2D)    (None, 7, 7, 128)    69632       conv5_block2_0_relu[0][0]        \n",
            "__________________________________________________________________________________________________\n",
            "conv5_block2_1_bn (BatchNormali (None, 7, 7, 128)    512         conv5_block2_1_conv[0][0]        \n",
            "__________________________________________________________________________________________________\n",
            "conv5_block2_1_relu (Activation (None, 7, 7, 128)    0           conv5_block2_1_bn[0][0]          \n",
            "__________________________________________________________________________________________________\n",
            "conv5_block2_2_conv (Conv2D)    (None, 7, 7, 32)     36864       conv5_block2_1_relu[0][0]        \n",
            "__________________________________________________________________________________________________\n",
            "conv5_block2_concat (Concatenat (None, 7, 7, 576)    0           conv5_block1_concat[0][0]        \n",
            "                                                                 conv5_block2_2_conv[0][0]        \n",
            "__________________________________________________________________________________________________\n",
            "conv5_block3_0_bn (BatchNormali (None, 7, 7, 576)    2304        conv5_block2_concat[0][0]        \n",
            "__________________________________________________________________________________________________\n",
            "conv5_block3_0_relu (Activation (None, 7, 7, 576)    0           conv5_block3_0_bn[0][0]          \n",
            "__________________________________________________________________________________________________\n",
            "conv5_block3_1_conv (Conv2D)    (None, 7, 7, 128)    73728       conv5_block3_0_relu[0][0]        \n",
            "__________________________________________________________________________________________________\n",
            "conv5_block3_1_bn (BatchNormali (None, 7, 7, 128)    512         conv5_block3_1_conv[0][0]        \n",
            "__________________________________________________________________________________________________\n",
            "conv5_block3_1_relu (Activation (None, 7, 7, 128)    0           conv5_block3_1_bn[0][0]          \n",
            "__________________________________________________________________________________________________\n",
            "conv5_block3_2_conv (Conv2D)    (None, 7, 7, 32)     36864       conv5_block3_1_relu[0][0]        \n",
            "__________________________________________________________________________________________________\n",
            "conv5_block3_concat (Concatenat (None, 7, 7, 608)    0           conv5_block2_concat[0][0]        \n",
            "                                                                 conv5_block3_2_conv[0][0]        \n",
            "__________________________________________________________________________________________________\n",
            "conv5_block4_0_bn (BatchNormali (None, 7, 7, 608)    2432        conv5_block3_concat[0][0]        \n",
            "__________________________________________________________________________________________________\n",
            "conv5_block4_0_relu (Activation (None, 7, 7, 608)    0           conv5_block4_0_bn[0][0]          \n",
            "__________________________________________________________________________________________________\n",
            "conv5_block4_1_conv (Conv2D)    (None, 7, 7, 128)    77824       conv5_block4_0_relu[0][0]        \n",
            "__________________________________________________________________________________________________\n",
            "conv5_block4_1_bn (BatchNormali (None, 7, 7, 128)    512         conv5_block4_1_conv[0][0]        \n",
            "__________________________________________________________________________________________________\n",
            "conv5_block4_1_relu (Activation (None, 7, 7, 128)    0           conv5_block4_1_bn[0][0]          \n",
            "__________________________________________________________________________________________________\n",
            "conv5_block4_2_conv (Conv2D)    (None, 7, 7, 32)     36864       conv5_block4_1_relu[0][0]        \n",
            "__________________________________________________________________________________________________\n",
            "conv5_block4_concat (Concatenat (None, 7, 7, 640)    0           conv5_block3_concat[0][0]        \n",
            "                                                                 conv5_block4_2_conv[0][0]        \n",
            "__________________________________________________________________________________________________\n",
            "conv5_block5_0_bn (BatchNormali (None, 7, 7, 640)    2560        conv5_block4_concat[0][0]        \n",
            "__________________________________________________________________________________________________\n",
            "conv5_block5_0_relu (Activation (None, 7, 7, 640)    0           conv5_block5_0_bn[0][0]          \n",
            "__________________________________________________________________________________________________\n",
            "conv5_block5_1_conv (Conv2D)    (None, 7, 7, 128)    81920       conv5_block5_0_relu[0][0]        \n",
            "__________________________________________________________________________________________________\n",
            "conv5_block5_1_bn (BatchNormali (None, 7, 7, 128)    512         conv5_block5_1_conv[0][0]        \n",
            "__________________________________________________________________________________________________\n",
            "conv5_block5_1_relu (Activation (None, 7, 7, 128)    0           conv5_block5_1_bn[0][0]          \n",
            "__________________________________________________________________________________________________\n",
            "conv5_block5_2_conv (Conv2D)    (None, 7, 7, 32)     36864       conv5_block5_1_relu[0][0]        \n",
            "__________________________________________________________________________________________________\n",
            "conv5_block5_concat (Concatenat (None, 7, 7, 672)    0           conv5_block4_concat[0][0]        \n",
            "                                                                 conv5_block5_2_conv[0][0]        \n",
            "__________________________________________________________________________________________________\n",
            "conv5_block6_0_bn (BatchNormali (None, 7, 7, 672)    2688        conv5_block5_concat[0][0]        \n",
            "__________________________________________________________________________________________________\n",
            "conv5_block6_0_relu (Activation (None, 7, 7, 672)    0           conv5_block6_0_bn[0][0]          \n",
            "__________________________________________________________________________________________________\n",
            "conv5_block6_1_conv (Conv2D)    (None, 7, 7, 128)    86016       conv5_block6_0_relu[0][0]        \n",
            "__________________________________________________________________________________________________\n",
            "conv5_block6_1_bn (BatchNormali (None, 7, 7, 128)    512         conv5_block6_1_conv[0][0]        \n",
            "__________________________________________________________________________________________________\n",
            "conv5_block6_1_relu (Activation (None, 7, 7, 128)    0           conv5_block6_1_bn[0][0]          \n",
            "__________________________________________________________________________________________________\n",
            "conv5_block6_2_conv (Conv2D)    (None, 7, 7, 32)     36864       conv5_block6_1_relu[0][0]        \n",
            "__________________________________________________________________________________________________\n",
            "conv5_block6_concat (Concatenat (None, 7, 7, 704)    0           conv5_block5_concat[0][0]        \n",
            "                                                                 conv5_block6_2_conv[0][0]        \n",
            "__________________________________________________________________________________________________\n",
            "conv5_block7_0_bn (BatchNormali (None, 7, 7, 704)    2816        conv5_block6_concat[0][0]        \n",
            "__________________________________________________________________________________________________\n",
            "conv5_block7_0_relu (Activation (None, 7, 7, 704)    0           conv5_block7_0_bn[0][0]          \n",
            "__________________________________________________________________________________________________\n",
            "conv5_block7_1_conv (Conv2D)    (None, 7, 7, 128)    90112       conv5_block7_0_relu[0][0]        \n",
            "__________________________________________________________________________________________________\n",
            "conv5_block7_1_bn (BatchNormali (None, 7, 7, 128)    512         conv5_block7_1_conv[0][0]        \n",
            "__________________________________________________________________________________________________\n",
            "conv5_block7_1_relu (Activation (None, 7, 7, 128)    0           conv5_block7_1_bn[0][0]          \n",
            "__________________________________________________________________________________________________\n",
            "conv5_block7_2_conv (Conv2D)    (None, 7, 7, 32)     36864       conv5_block7_1_relu[0][0]        \n",
            "__________________________________________________________________________________________________\n",
            "conv5_block7_concat (Concatenat (None, 7, 7, 736)    0           conv5_block6_concat[0][0]        \n",
            "                                                                 conv5_block7_2_conv[0][0]        \n",
            "__________________________________________________________________________________________________\n",
            "conv5_block8_0_bn (BatchNormali (None, 7, 7, 736)    2944        conv5_block7_concat[0][0]        \n",
            "__________________________________________________________________________________________________\n",
            "conv5_block8_0_relu (Activation (None, 7, 7, 736)    0           conv5_block8_0_bn[0][0]          \n",
            "__________________________________________________________________________________________________\n",
            "conv5_block8_1_conv (Conv2D)    (None, 7, 7, 128)    94208       conv5_block8_0_relu[0][0]        \n",
            "__________________________________________________________________________________________________\n",
            "conv5_block8_1_bn (BatchNormali (None, 7, 7, 128)    512         conv5_block8_1_conv[0][0]        \n",
            "__________________________________________________________________________________________________\n",
            "conv5_block8_1_relu (Activation (None, 7, 7, 128)    0           conv5_block8_1_bn[0][0]          \n",
            "__________________________________________________________________________________________________\n",
            "conv5_block8_2_conv (Conv2D)    (None, 7, 7, 32)     36864       conv5_block8_1_relu[0][0]        \n",
            "__________________________________________________________________________________________________\n",
            "conv5_block8_concat (Concatenat (None, 7, 7, 768)    0           conv5_block7_concat[0][0]        \n",
            "                                                                 conv5_block8_2_conv[0][0]        \n",
            "__________________________________________________________________________________________________\n",
            "conv5_block9_0_bn (BatchNormali (None, 7, 7, 768)    3072        conv5_block8_concat[0][0]        \n",
            "__________________________________________________________________________________________________\n",
            "conv5_block9_0_relu (Activation (None, 7, 7, 768)    0           conv5_block9_0_bn[0][0]          \n",
            "__________________________________________________________________________________________________\n",
            "conv5_block9_1_conv (Conv2D)    (None, 7, 7, 128)    98304       conv5_block9_0_relu[0][0]        \n",
            "__________________________________________________________________________________________________\n",
            "conv5_block9_1_bn (BatchNormali (None, 7, 7, 128)    512         conv5_block9_1_conv[0][0]        \n",
            "__________________________________________________________________________________________________\n",
            "conv5_block9_1_relu (Activation (None, 7, 7, 128)    0           conv5_block9_1_bn[0][0]          \n",
            "__________________________________________________________________________________________________\n",
            "conv5_block9_2_conv (Conv2D)    (None, 7, 7, 32)     36864       conv5_block9_1_relu[0][0]        \n",
            "__________________________________________________________________________________________________\n",
            "conv5_block9_concat (Concatenat (None, 7, 7, 800)    0           conv5_block8_concat[0][0]        \n",
            "                                                                 conv5_block9_2_conv[0][0]        \n",
            "__________________________________________________________________________________________________\n",
            "conv5_block10_0_bn (BatchNormal (None, 7, 7, 800)    3200        conv5_block9_concat[0][0]        \n",
            "__________________________________________________________________________________________________\n",
            "conv5_block10_0_relu (Activatio (None, 7, 7, 800)    0           conv5_block10_0_bn[0][0]         \n",
            "__________________________________________________________________________________________________\n",
            "conv5_block10_1_conv (Conv2D)   (None, 7, 7, 128)    102400      conv5_block10_0_relu[0][0]       \n",
            "__________________________________________________________________________________________________\n",
            "conv5_block10_1_bn (BatchNormal (None, 7, 7, 128)    512         conv5_block10_1_conv[0][0]       \n",
            "__________________________________________________________________________________________________\n",
            "conv5_block10_1_relu (Activatio (None, 7, 7, 128)    0           conv5_block10_1_bn[0][0]         \n",
            "__________________________________________________________________________________________________\n",
            "conv5_block10_2_conv (Conv2D)   (None, 7, 7, 32)     36864       conv5_block10_1_relu[0][0]       \n",
            "__________________________________________________________________________________________________\n",
            "conv5_block10_concat (Concatena (None, 7, 7, 832)    0           conv5_block9_concat[0][0]        \n",
            "                                                                 conv5_block10_2_conv[0][0]       \n",
            "__________________________________________________________________________________________________\n",
            "conv5_block11_0_bn (BatchNormal (None, 7, 7, 832)    3328        conv5_block10_concat[0][0]       \n",
            "__________________________________________________________________________________________________\n",
            "conv5_block11_0_relu (Activatio (None, 7, 7, 832)    0           conv5_block11_0_bn[0][0]         \n",
            "__________________________________________________________________________________________________\n",
            "conv5_block11_1_conv (Conv2D)   (None, 7, 7, 128)    106496      conv5_block11_0_relu[0][0]       \n",
            "__________________________________________________________________________________________________\n",
            "conv5_block11_1_bn (BatchNormal (None, 7, 7, 128)    512         conv5_block11_1_conv[0][0]       \n",
            "__________________________________________________________________________________________________\n",
            "conv5_block11_1_relu (Activatio (None, 7, 7, 128)    0           conv5_block11_1_bn[0][0]         \n",
            "__________________________________________________________________________________________________\n",
            "conv5_block11_2_conv (Conv2D)   (None, 7, 7, 32)     36864       conv5_block11_1_relu[0][0]       \n",
            "__________________________________________________________________________________________________\n",
            "conv5_block11_concat (Concatena (None, 7, 7, 864)    0           conv5_block10_concat[0][0]       \n",
            "                                                                 conv5_block11_2_conv[0][0]       \n",
            "__________________________________________________________________________________________________\n",
            "conv5_block12_0_bn (BatchNormal (None, 7, 7, 864)    3456        conv5_block11_concat[0][0]       \n",
            "__________________________________________________________________________________________________\n",
            "conv5_block12_0_relu (Activatio (None, 7, 7, 864)    0           conv5_block12_0_bn[0][0]         \n",
            "__________________________________________________________________________________________________\n",
            "conv5_block12_1_conv (Conv2D)   (None, 7, 7, 128)    110592      conv5_block12_0_relu[0][0]       \n",
            "__________________________________________________________________________________________________\n",
            "conv5_block12_1_bn (BatchNormal (None, 7, 7, 128)    512         conv5_block12_1_conv[0][0]       \n",
            "__________________________________________________________________________________________________\n",
            "conv5_block12_1_relu (Activatio (None, 7, 7, 128)    0           conv5_block12_1_bn[0][0]         \n",
            "__________________________________________________________________________________________________\n",
            "conv5_block12_2_conv (Conv2D)   (None, 7, 7, 32)     36864       conv5_block12_1_relu[0][0]       \n",
            "__________________________________________________________________________________________________\n",
            "conv5_block12_concat (Concatena (None, 7, 7, 896)    0           conv5_block11_concat[0][0]       \n",
            "                                                                 conv5_block12_2_conv[0][0]       \n",
            "__________________________________________________________________________________________________\n",
            "conv5_block13_0_bn (BatchNormal (None, 7, 7, 896)    3584        conv5_block12_concat[0][0]       \n",
            "__________________________________________________________________________________________________\n",
            "conv5_block13_0_relu (Activatio (None, 7, 7, 896)    0           conv5_block13_0_bn[0][0]         \n",
            "__________________________________________________________________________________________________\n",
            "conv5_block13_1_conv (Conv2D)   (None, 7, 7, 128)    114688      conv5_block13_0_relu[0][0]       \n",
            "__________________________________________________________________________________________________\n",
            "conv5_block13_1_bn (BatchNormal (None, 7, 7, 128)    512         conv5_block13_1_conv[0][0]       \n",
            "__________________________________________________________________________________________________\n",
            "conv5_block13_1_relu (Activatio (None, 7, 7, 128)    0           conv5_block13_1_bn[0][0]         \n",
            "__________________________________________________________________________________________________\n",
            "conv5_block13_2_conv (Conv2D)   (None, 7, 7, 32)     36864       conv5_block13_1_relu[0][0]       \n",
            "__________________________________________________________________________________________________\n",
            "conv5_block13_concat (Concatena (None, 7, 7, 928)    0           conv5_block12_concat[0][0]       \n",
            "                                                                 conv5_block13_2_conv[0][0]       \n",
            "__________________________________________________________________________________________________\n",
            "conv5_block14_0_bn (BatchNormal (None, 7, 7, 928)    3712        conv5_block13_concat[0][0]       \n",
            "__________________________________________________________________________________________________\n",
            "conv5_block14_0_relu (Activatio (None, 7, 7, 928)    0           conv5_block14_0_bn[0][0]         \n",
            "__________________________________________________________________________________________________\n",
            "conv5_block14_1_conv (Conv2D)   (None, 7, 7, 128)    118784      conv5_block14_0_relu[0][0]       \n",
            "__________________________________________________________________________________________________\n",
            "conv5_block14_1_bn (BatchNormal (None, 7, 7, 128)    512         conv5_block14_1_conv[0][0]       \n",
            "__________________________________________________________________________________________________\n",
            "conv5_block14_1_relu (Activatio (None, 7, 7, 128)    0           conv5_block14_1_bn[0][0]         \n",
            "__________________________________________________________________________________________________\n",
            "conv5_block14_2_conv (Conv2D)   (None, 7, 7, 32)     36864       conv5_block14_1_relu[0][0]       \n",
            "__________________________________________________________________________________________________\n",
            "conv5_block14_concat (Concatena (None, 7, 7, 960)    0           conv5_block13_concat[0][0]       \n",
            "                                                                 conv5_block14_2_conv[0][0]       \n",
            "__________________________________________________________________________________________________\n",
            "conv5_block15_0_bn (BatchNormal (None, 7, 7, 960)    3840        conv5_block14_concat[0][0]       \n",
            "__________________________________________________________________________________________________\n",
            "conv5_block15_0_relu (Activatio (None, 7, 7, 960)    0           conv5_block15_0_bn[0][0]         \n",
            "__________________________________________________________________________________________________\n",
            "conv5_block15_1_conv (Conv2D)   (None, 7, 7, 128)    122880      conv5_block15_0_relu[0][0]       \n",
            "__________________________________________________________________________________________________\n",
            "conv5_block15_1_bn (BatchNormal (None, 7, 7, 128)    512         conv5_block15_1_conv[0][0]       \n",
            "__________________________________________________________________________________________________\n",
            "conv5_block15_1_relu (Activatio (None, 7, 7, 128)    0           conv5_block15_1_bn[0][0]         \n",
            "__________________________________________________________________________________________________\n",
            "conv5_block15_2_conv (Conv2D)   (None, 7, 7, 32)     36864       conv5_block15_1_relu[0][0]       \n",
            "__________________________________________________________________________________________________\n",
            "conv5_block15_concat (Concatena (None, 7, 7, 992)    0           conv5_block14_concat[0][0]       \n",
            "                                                                 conv5_block15_2_conv[0][0]       \n",
            "__________________________________________________________________________________________________\n",
            "conv5_block16_0_bn (BatchNormal (None, 7, 7, 992)    3968        conv5_block15_concat[0][0]       \n",
            "__________________________________________________________________________________________________\n",
            "conv5_block16_0_relu (Activatio (None, 7, 7, 992)    0           conv5_block16_0_bn[0][0]         \n",
            "__________________________________________________________________________________________________\n",
            "conv5_block16_1_conv (Conv2D)   (None, 7, 7, 128)    126976      conv5_block16_0_relu[0][0]       \n",
            "__________________________________________________________________________________________________\n",
            "conv5_block16_1_bn (BatchNormal (None, 7, 7, 128)    512         conv5_block16_1_conv[0][0]       \n",
            "__________________________________________________________________________________________________\n",
            "conv5_block16_1_relu (Activatio (None, 7, 7, 128)    0           conv5_block16_1_bn[0][0]         \n",
            "__________________________________________________________________________________________________\n",
            "conv5_block16_2_conv (Conv2D)   (None, 7, 7, 32)     36864       conv5_block16_1_relu[0][0]       \n",
            "__________________________________________________________________________________________________\n",
            "conv5_block16_concat (Concatena (None, 7, 7, 1024)   0           conv5_block15_concat[0][0]       \n",
            "                                                                 conv5_block16_2_conv[0][0]       \n",
            "__________________________________________________________________________________________________\n",
            "bn (BatchNormalization)         (None, 7, 7, 1024)   4096        conv5_block16_concat[0][0]       \n",
            "__________________________________________________________________________________________________\n",
            "relu (Activation)               (None, 7, 7, 1024)   0           bn[0][0]                         \n",
            "__________________________________________________________________________________________________\n",
            "conv2d_105 (Conv2D)             (None, 6, 6, 128)    524416      relu[0][0]                       \n",
            "__________________________________________________________________________________________________\n",
            "batch_normalization_210 (BatchN (None, 6, 6, 128)    512         conv2d_105[0][0]                 \n",
            "__________________________________________________________________________________________________\n",
            "max_pooling2d_105 (MaxPooling2D (None, 2, 2, 128)    0           batch_normalization_210[0][0]    \n",
            "__________________________________________________________________________________________________\n",
            "dense_210 (Dense)               (None, 2, 2, 64)     8256        max_pooling2d_105[0][0]          \n",
            "__________________________________________________________________________________________________\n",
            "batch_normalization_211 (BatchN (None, 2, 2, 64)     256         dense_210[0][0]                  \n",
            "__________________________________________________________________________________________________\n",
            "dropout_105 (Dropout)           (None, 2, 2, 64)     0           batch_normalization_211[0][0]    \n",
            "__________________________________________________________________________________________________\n",
            "flatten (Flatten)               (None, 256)          0           dropout_105[0][0]                \n",
            "__________________________________________________________________________________________________\n",
            "dense_211 (Dense)               (None, 2)            514         flatten[0][0]                    \n",
            "==================================================================================================\n",
            "Total params: 7,571,458\n",
            "Trainable params: 533,186\n",
            "Non-trainable params: 7,038,272\n",
            "__________________________________________________________________________________________________\n",
…
